{"format": "graph-model", "generatedBy": "2.16.1", "convertedBy": "TensorFlow.js Converter v4.20.0", "signature": {"inputs": {"keras_tensor_172": {"name": "keras_tensor_172:0", "dtype": "DT_FLOAT", "tensorShape": {"dim": [{"size": "-1"}, {"size": "150"}, {"size": "150"}, {"size": "3"}]}}}, "outputs": {"output_0": {"name": "Identity:0", "dtype": "DT_FLOAT", "tensorShape": {"dim": [{"size": "-1"}, {"size": "1"}]}}}}, "modelTopology": {"node": [{"name": "StatefulPartitionedCall/functional_1_1/conv2d_40_1/convolution/merged_input", "op": "Const", "attr": {"value": {"tensor": {"dtype": "DT_FLOAT", "tensorShape": {"dim": [{"size": "1"}, {"size": "1"}, {"size": "768"}, {"size": "192"}]}}}, "dtype": {"type": "DT_FLOAT"}}}, {"name": "StatefulPartitionedCall/functional_1_1/batch_normalization_40_1/batchnorm/sub", "op": "Const", "attr": {"dtype": {"type": "DT_FLOAT"}, "value": {"tensor": {"dtype": "DT_FLOAT", "tensorShape": {"dim": [{"size": "1"}, {"size": "1"}, {"size": "1"}, {"size": "192"}]}}}}}, {"name": "StatefulPartitionedCall/functional_1_1/conv2d_41_1/convolution/merged_input", "op": "Const", "attr": {"value": {"tensor": {"dtype": "DT_FLOAT", "tensorShape": {"dim": [{"size": "1"}, {"size": "1"}, {"size": "768"}, {"size": "160"}]}}}, "dtype": {"type": "DT_FLOAT"}}}, {"name": "StatefulPartitionedCall/functional_1_1/batch_normalization_41_1/batchnorm/sub", "op": "Const", "attr": {"value": {"tensor": {"dtype": "DT_FLOAT", "tensorShape": {"dim": [{"size": "1"}, {"size": "1"}, {"size": "1"}, {"size": "160"}]}}}, "dtype": {"type": "DT_FLOAT"}}}, {"name": "StatefulPartitionedCall/functional_1_1/conv2d_42_1/convolution/merged_input", "op": "Const", "attr": {"dtype": {"type": "DT_FLOAT"}, "value": {"tensor": {"dtype": "DT_FLOAT", "tensorShape": {"dim": [{"size": "1"}, {"size": "7"}, {"size": "160"}, {"size": "160"}]}}}}}, {"name": "StatefulPartitionedCall/functional_1_1/batch_normalization_42_1/batchnorm/sub", "op": "Const", "attr": {"dtype": {"type": "DT_FLOAT"}, "value": {"tensor": {"dtype": "DT_FLOAT", "tensorShape": {"dim": [{"size": "1"}, {"size": "1"}, {"size": "1"}, {"size": "160"}]}}}}}, {"name": "StatefulPartitionedCall/functional_1_1/conv2d_43_1/convolution/merged_input", "op": "Const", "attr": {"value": {"tensor": {"dtype": "DT_FLOAT", "tensorShape": {"dim": [{"size": "7"}, {"size": "1"}, {"size": "160"}, {"size": "192"}]}}}, "dtype": {"type": "DT_FLOAT"}}}, {"name": "StatefulPartitionedCall/functional_1_1/batch_normalization_43_1/batchnorm/sub", "op": "Const", "attr": {"value": {"tensor": {"dtype": "DT_FLOAT", "tensorShape": {"dim": [{"size": "1"}, {"size": "1"}, {"size": "1"}, {"size": "192"}]}}}, "dtype": {"type": "DT_FLOAT"}}}, {"name": "StatefulPartitionedCall/functional_1_1/conv2d_44_1/convolution/merged_input", "op": "Const", "attr": {"value": {"tensor": {"dtype": "DT_FLOAT", "tensorShape": {"dim": [{"size": "1"}, {"size": "1"}, {"size": "768"}, {"size": "160"}]}}}, "dtype": {"type": "DT_FLOAT"}}}, {"name": "StatefulPartitionedCall/functional_1_1/batch_normalization_44_1/batchnorm/sub", "op": "Const", "attr": {"value": {"tensor": {"dtype": "DT_FLOAT", "tensorShape": {"dim": [{"size": "1"}, {"size": "1"}, {"size": "1"}, {"size": "160"}]}}}, "dtype": {"type": "DT_FLOAT"}}}, {"name": "StatefulPartitionedCall/functional_1_1/conv2d_45_1/convolution/merged_input", "op": "Const", "attr": {"value": {"tensor": {"dtype": "DT_FLOAT", "tensorShape": {"dim": [{"size": "7"}, {"size": "1"}, {"size": "160"}, {"size": "160"}]}}}, "dtype": {"type": "DT_FLOAT"}}}, {"name": "StatefulPartitionedCall/functional_1_1/batch_normalization_45_1/batchnorm/sub", "op": "Const", "attr": {"dtype": {"type": "DT_FLOAT"}, "value": {"tensor": {"dtype": "DT_FLOAT", "tensorShape": {"dim": [{"size": "1"}, {"size": "1"}, {"size": "1"}, {"size": "160"}]}}}}}, {"name": "StatefulPartitionedCall/functional_1_1/conv2d_46_1/convolution/merged_input", "op": "Const", "attr": {"value": {"tensor": {"dtype": "DT_FLOAT", "tensorShape": {"dim": [{"size": "1"}, {"size": "7"}, {"size": "160"}, {"size": "160"}]}}}, "dtype": {"type": "DT_FLOAT"}}}, {"name": "StatefulPartitionedCall/functional_1_1/batch_normalization_46_1/batchnorm/sub", "op": "Const", "attr": {"value": {"tensor": {"dtype": "DT_FLOAT", "tensorShape": {"dim": [{"size": "1"}, {"size": "1"}, {"size": "1"}, {"size": "160"}]}}}, "dtype": {"type": "DT_FLOAT"}}}, {"name": "StatefulPartitionedCall/functional_1_1/conv2d_47_1/convolution/merged_input", "op": "Const", "attr": {"dtype": {"type": "DT_FLOAT"}, "value": {"tensor": {"dtype": "DT_FLOAT", "tensorShape": {"dim": [{"size": "7"}, {"size": "1"}, {"size": "160"}, {"size": "160"}]}}}}}, {"name": "StatefulPartitionedCall/functional_1_1/batch_normalization_47_1/batchnorm/sub", "op": "Const", "attr": {"dtype": {"type": "DT_FLOAT"}, "value": {"tensor": {"dtype": "DT_FLOAT", "tensorShape": {"dim": [{"size": "1"}, {"size": "1"}, {"size": "1"}, {"size": "160"}]}}}}}, {"name": "StatefulPartitionedCall/functional_1_1/conv2d_48_1/convolution/merged_input", "op": "Const", "attr": {"value": {"tensor": {"dtype": "DT_FLOAT", "tensorShape": {"dim": [{"size": "1"}, {"size": "7"}, {"size": "160"}, {"size": "192"}]}}}, "dtype": {"type": "DT_FLOAT"}}}, {"name": "StatefulPartitionedCall/functional_1_1/batch_normalization_48_1/batchnorm/sub", "op": "Const", "attr": {"value": {"tensor": {"dtype": "DT_FLOAT", "tensorShape": {"dim": [{"size": "1"}, {"size": "1"}, {"size": "1"}, {"size": "192"}]}}}, "dtype": {"type": "DT_FLOAT"}}}, {"name": "StatefulPartitionedCall/functional_1_1/conv2d_30_1/convolution/merged_input", "op": "Const", "attr": {"dtype": {"type": "DT_FLOAT"}, "value": {"tensor": {"dtype": "DT_FLOAT", "tensorShape": {"dim": [{"size": "1"}, {"size": "1"}, {"size": "768"}, {"size": "192"}]}}}}}, {"name": "StatefulPartitionedCall/functional_1_1/batch_normalization_30_1/batchnorm/sub", "op": "Const", "attr": {"value": {"tensor": {"dtype": "DT_FLOAT", "tensorShape": {"dim": [{"size": "1"}, {"size": "1"}, {"size": "1"}, {"size": "192"}]}}}, "dtype": {"type": "DT_FLOAT"}}}, {"name": "StatefulPartitionedCall/functional_1_1/conv2d_31_1/convolution/merged_input", "op": "Const", "attr": {"value": {"tensor": {"dtype": "DT_FLOAT", "tensorShape": {"dim": [{"size": "1"}, {"size": "1"}, {"size": "768"}, {"size": "128"}]}}}, "dtype": {"type": "DT_FLOAT"}}}, {"name": "StatefulPartitionedCall/functional_1_1/batch_normalization_31_1/batchnorm/sub", "op": "Const", "attr": {"value": {"tensor": {"dtype": "DT_FLOAT", "tensorShape": {"dim": [{"size": "1"}, {"size": "1"}, {"size": "1"}, {"size": "128"}]}}}, "dtype": {"type": "DT_FLOAT"}}}, {"name": "StatefulPartitionedCall/functional_1_1/conv2d_32_1/convolution/merged_input", "op": "Const", "attr": {"value": {"tensor": {"dtype": "DT_FLOAT", "tensorShape": {"dim": [{"size": "1"}, {"size": "7"}, {"size": "128"}, {"size": "128"}]}}}, "dtype": {"type": "DT_FLOAT"}}}, {"name": "StatefulPartitionedCall/functional_1_1/batch_normalization_32_1/batchnorm/sub", "op": "Const", "attr": {"dtype": {"type": "DT_FLOAT"}, "value": {"tensor": {"dtype": "DT_FLOAT", "tensorShape": {"dim": [{"size": "1"}, {"size": "1"}, {"size": "1"}, {"size": "128"}]}}}}}, {"name": "StatefulPartitionedCall/functional_1_1/conv2d_33_1/convolution/merged_input", "op": "Const", "attr": {"value": {"tensor": {"dtype": "DT_FLOAT", "tensorShape": {"dim": [{"size": "7"}, {"size": "1"}, {"size": "128"}, {"size": "192"}]}}}, "dtype": {"type": "DT_FLOAT"}}}, {"name": "StatefulPartitionedCall/functional_1_1/batch_normalization_33_1/batchnorm/sub", "op": "Const", "attr": {"value": {"tensor": {"dtype": "DT_FLOAT", "tensorShape": {"dim": [{"size": "1"}, {"size": "1"}, {"size": "1"}, {"size": "192"}]}}}, "dtype": {"type": "DT_FLOAT"}}}, {"name": "StatefulPartitionedCall/functional_1_1/conv2d_34_1/convolution/merged_input", "op": "Const", "attr": {"dtype": {"type": "DT_FLOAT"}, "value": {"tensor": {"dtype": "DT_FLOAT", "tensorShape": {"dim": [{"size": "1"}, {"size": "1"}, {"size": "768"}, {"size": "128"}]}}}}}, {"name": "StatefulPartitionedCall/functional_1_1/batch_normalization_34_1/batchnorm/sub", "op": "Const", "attr": {"value": {"tensor": {"dtype": "DT_FLOAT", "tensorShape": {"dim": [{"size": "1"}, {"size": "1"}, {"size": "1"}, {"size": "128"}]}}}, "dtype": {"type": "DT_FLOAT"}}}, {"name": "StatefulPartitionedCall/functional_1_1/conv2d_35_1/convolution/merged_input", "op": "Const", "attr": {"dtype": {"type": "DT_FLOAT"}, "value": {"tensor": {"dtype": "DT_FLOAT", "tensorShape": {"dim": [{"size": "7"}, {"size": "1"}, {"size": "128"}, {"size": "128"}]}}}}}, {"name": "StatefulPartitionedCall/functional_1_1/batch_normalization_35_1/batchnorm/sub", "op": "Const", "attr": {"dtype": {"type": "DT_FLOAT"}, "value": {"tensor": {"dtype": "DT_FLOAT", "tensorShape": {"dim": [{"size": "1"}, {"size": "1"}, {"size": "1"}, {"size": "128"}]}}}}}, {"name": "StatefulPartitionedCall/functional_1_1/conv2d_36_1/convolution/merged_input", "op": "Const", "attr": {"dtype": {"type": "DT_FLOAT"}, "value": {"tensor": {"dtype": "DT_FLOAT", "tensorShape": {"dim": [{"size": "1"}, {"size": "7"}, {"size": "128"}, {"size": "128"}]}}}}}, {"name": "StatefulPartitionedCall/functional_1_1/batch_normalization_36_1/batchnorm/sub", "op": "Const", "attr": {"value": {"tensor": {"dtype": "DT_FLOAT", "tensorShape": {"dim": [{"size": "1"}, {"size": "1"}, {"size": "1"}, {"size": "128"}]}}}, "dtype": {"type": "DT_FLOAT"}}}, {"name": "StatefulPartitionedCall/functional_1_1/conv2d_37_1/convolution/merged_input", "op": "Const", "attr": {"value": {"tensor": {"dtype": "DT_FLOAT", "tensorShape": {"dim": [{"size": "7"}, {"size": "1"}, {"size": "128"}, {"size": "128"}]}}}, "dtype": {"type": "DT_FLOAT"}}}, {"name": "StatefulPartitionedCall/functional_1_1/batch_normalization_37_1/batchnorm/sub", "op": "Const", "attr": {"dtype": {"type": "DT_FLOAT"}, "value": {"tensor": {"dtype": "DT_FLOAT", "tensorShape": {"dim": [{"size": "1"}, {"size": "1"}, {"size": "1"}, {"size": "128"}]}}}}}, {"name": "StatefulPartitionedCall/functional_1_1/conv2d_38_1/convolution/merged_input", "op": "Const", "attr": {"dtype": {"type": "DT_FLOAT"}, "value": {"tensor": {"dtype": "DT_FLOAT", "tensorShape": {"dim": [{"size": "1"}, {"size": "7"}, {"size": "128"}, {"size": "192"}]}}}}}, {"name": "StatefulPartitionedCall/functional_1_1/batch_normalization_38_1/batchnorm/sub", "op": "Const", "attr": {"dtype": {"type": "DT_FLOAT"}, "value": {"tensor": {"dtype": "DT_FLOAT", "tensorShape": {"dim": [{"size": "1"}, {"size": "1"}, {"size": "1"}, {"size": "192"}]}}}}}, {"name": "StatefulPartitionedCall/functional_1_1/conv2d_26_1/convolution/merged_input", "op": "Const", "attr": {"value": {"tensor": {"dtype": "DT_FLOAT", "tensorShape": {"dim": [{"size": "3"}, {"size": "3"}, {"size": "288"}, {"size": "384"}]}}}, "dtype": {"type": "DT_FLOAT"}}}, {"name": "StatefulPartitionedCall/functional_1_1/batch_normalization_26_1/batchnorm/sub", "op": "Const", "attr": {"dtype": {"type": "DT_FLOAT"}, "value": {"tensor": {"dtype": "DT_FLOAT", "tensorShape": {"dim": [{"size": "1"}, {"size": "1"}, {"size": "1"}, {"size": "384"}]}}}}}, {"name": "StatefulPartitionedCall/functional_1_1/conv2d_27_1/convolution/merged_input", "op": "Const", "attr": {"dtype": {"type": "DT_FLOAT"}, "value": {"tensor": {"dtype": "DT_FLOAT", "tensorShape": {"dim": [{"size": "1"}, {"size": "1"}, {"size": "288"}, {"size": "64"}]}}}}}, {"name": "StatefulPartitionedCall/functional_1_1/batch_normalization_27_1/batchnorm/sub", "op": "Const", "attr": {"dtype": {"type": "DT_FLOAT"}, "value": {"tensor": {"dtype": "DT_FLOAT", "tensorShape": {"dim": [{"size": "1"}, {"size": "1"}, {"size": "1"}, {"size": "64"}]}}}}}, {"name": "StatefulPartitionedCall/functional_1_1/conv2d_28_1/convolution/merged_input", "op": "Const", "attr": {"dtype": {"type": "DT_FLOAT"}, "value": {"tensor": {"dtype": "DT_FLOAT", "tensorShape": {"dim": [{"size": "3"}, {"size": "3"}, {"size": "64"}, {"size": "96"}]}}}}}, {"name": "StatefulPartitionedCall/functional_1_1/batch_normalization_28_1/batchnorm/sub", "op": "Const", "attr": {"value": {"tensor": {"dtype": "DT_FLOAT", "tensorShape": {"dim": [{"size": "1"}, {"size": "1"}, {"size": "1"}, {"size": "96"}]}}}, "dtype": {"type": "DT_FLOAT"}}}, {"name": "StatefulPartitionedCall/functional_1_1/conv2d_29_1/convolution/merged_input", "op": "Const", "attr": {"value": {"tensor": {"dtype": "DT_FLOAT", "tensorShape": {"dim": [{"size": "3"}, {"size": "3"}, {"size": "96"}, {"size": "96"}]}}}, "dtype": {"type": "DT_FLOAT"}}}, {"name": "StatefulPartitionedCall/functional_1_1/batch_normalization_29_1/batchnorm/sub", "op": "Const", "attr": {"value": {"tensor": {"dtype": "DT_FLOAT", "tensorShape": {"dim": [{"size": "1"}, {"size": "1"}, {"size": "1"}, {"size": "96"}]}}}, "dtype": {"type": "DT_FLOAT"}}}, {"name": "StatefulPartitionedCall/functional_1_1/conv2d_19_1/convolution/merged_input", "op": "Const", "attr": {"dtype": {"type": "DT_FLOAT"}, "value": {"tensor": {"dtype": "DT_FLOAT", "tensorShape": {"dim": [{"size": "1"}, {"size": "1"}, {"size": "288"}, {"size": "64"}]}}}}}, {"name": "StatefulPartitionedCall/functional_1_1/batch_normalization_19_1/batchnorm/sub", "op": "Const", "attr": {"value": {"tensor": {"dtype": "DT_FLOAT", "tensorShape": {"dim": [{"size": "1"}, {"size": "1"}, {"size": "1"}, {"size": "64"}]}}}, "dtype": {"type": "DT_FLOAT"}}}, {"name": "StatefulPartitionedCall/functional_1_1/conv2d_20_1/convolution/merged_input", "op": "Const", "attr": {"dtype": {"type": "DT_FLOAT"}, "value": {"tensor": {"dtype": "DT_FLOAT", "tensorShape": {"dim": [{"size": "1"}, {"size": "1"}, {"size": "288"}, {"size": "48"}]}}}}}, {"name": "StatefulPartitionedCall/functional_1_1/batch_normalization_20_1/batchnorm/sub", "op": "Const", "attr": {"dtype": {"type": "DT_FLOAT"}, "value": {"tensor": {"dtype": "DT_FLOAT", "tensorShape": {"dim": [{"size": "1"}, {"size": "1"}, {"size": "1"}, {"size": "48"}]}}}}}, {"name": "StatefulPartitionedCall/functional_1_1/conv2d_21_1/convolution/merged_input", "op": "Const", "attr": {"value": {"tensor": {"dtype": "DT_FLOAT", "tensorShape": {"dim": [{"size": "5"}, {"size": "5"}, {"size": "48"}, {"size": "64"}]}}}, "dtype": {"type": "DT_FLOAT"}}}, {"name": "StatefulPartitionedCall/functional_1_1/batch_normalization_21_1/batchnorm/sub", "op": "Const", "attr": {"value": {"tensor": {"dtype": "DT_FLOAT", "tensorShape": {"dim": [{"size": "1"}, {"size": "1"}, {"size": "1"}, {"size": "64"}]}}}, "dtype": {"type": "DT_FLOAT"}}}, {"name": "StatefulPartitionedCall/functional_1_1/conv2d_22_1/convolution/merged_input", "op": "Const", "attr": {"value": {"tensor": {"dtype": "DT_FLOAT", "tensorShape": {"dim": [{"size": "1"}, {"size": "1"}, {"size": "288"}, {"size": "64"}]}}}, "dtype": {"type": "DT_FLOAT"}}}, {"name": "StatefulPartitionedCall/functional_1_1/batch_normalization_22_1/batchnorm/sub", "op": "Const", "attr": {"dtype": {"type": "DT_FLOAT"}, "value": {"tensor": {"dtype": "DT_FLOAT", "tensorShape": {"dim": [{"size": "1"}, {"size": "1"}, {"size": "1"}, {"size": "64"}]}}}}}, {"name": "StatefulPartitionedCall/functional_1_1/conv2d_23_1/convolution/merged_input", "op": "Const", "attr": {"dtype": {"type": "DT_FLOAT"}, "value": {"tensor": {"dtype": "DT_FLOAT", "tensorShape": {"dim": [{"size": "3"}, {"size": "3"}, {"size": "64"}, {"size": "96"}]}}}}}, {"name": "StatefulPartitionedCall/functional_1_1/batch_normalization_23_1/batchnorm/sub", "op": "Const", "attr": {"dtype": {"type": "DT_FLOAT"}, "value": {"tensor": {"dtype": "DT_FLOAT", "tensorShape": {"dim": [{"size": "1"}, {"size": "1"}, {"size": "1"}, {"size": "96"}]}}}}}, {"name": "StatefulPartitionedCall/functional_1_1/conv2d_24_1/convolution/merged_input", "op": "Const", "attr": {"dtype": {"type": "DT_FLOAT"}, "value": {"tensor": {"dtype": "DT_FLOAT", "tensorShape": {"dim": [{"size": "3"}, {"size": "3"}, {"size": "96"}, {"size": "96"}]}}}}}, {"name": "StatefulPartitionedCall/functional_1_1/batch_normalization_24_1/batchnorm/sub", "op": "Const", "attr": {"dtype": {"type": "DT_FLOAT"}, "value": {"tensor": {"dtype": "DT_FLOAT", "tensorShape": {"dim": [{"size": "1"}, {"size": "1"}, {"size": "1"}, {"size": "96"}]}}}}}, {"name": "StatefulPartitionedCall/functional_1_1/conv2d_12_1/convolution/merged_input", "op": "Const", "attr": {"dtype": {"type": "DT_FLOAT"}, "value": {"tensor": {"dtype": "DT_FLOAT", "tensorShape": {"dim": [{"size": "1"}, {"size": "1"}, {"size": "256"}, {"size": "64"}]}}}}}, {"name": "StatefulPartitionedCall/functional_1_1/batch_normalization_12_1/batchnorm/sub", "op": "Const", "attr": {"value": {"tensor": {"dtype": "DT_FLOAT", "tensorShape": {"dim": [{"size": "1"}, {"size": "1"}, {"size": "1"}, {"size": "64"}]}}}, "dtype": {"type": "DT_FLOAT"}}}, {"name": "StatefulPartitionedCall/functional_1_1/conv2d_13_1/convolution/merged_input", "op": "Const", "attr": {"value": {"tensor": {"dtype": "DT_FLOAT", "tensorShape": {"dim": [{"size": "1"}, {"size": "1"}, {"size": "256"}, {"size": "48"}]}}}, "dtype": {"type": "DT_FLOAT"}}}, {"name": "StatefulPartitionedCall/functional_1_1/batch_normalization_13_1/batchnorm/sub", "op": "Const", "attr": {"value": {"tensor": {"dtype": "DT_FLOAT", "tensorShape": {"dim": [{"size": "1"}, {"size": "1"}, {"size": "1"}, {"size": "48"}]}}}, "dtype": {"type": "DT_FLOAT"}}}, {"name": "StatefulPartitionedCall/functional_1_1/conv2d_14_1/convolution/merged_input", "op": "Const", "attr": {"dtype": {"type": "DT_FLOAT"}, "value": {"tensor": {"dtype": "DT_FLOAT", "tensorShape": {"dim": [{"size": "5"}, {"size": "5"}, {"size": "48"}, {"size": "64"}]}}}}}, {"name": "StatefulPartitionedCall/functional_1_1/batch_normalization_14_1/batchnorm/sub", "op": "Const", "attr": {"dtype": {"type": "DT_FLOAT"}, "value": {"tensor": {"dtype": "DT_FLOAT", "tensorShape": {"dim": [{"size": "1"}, {"size": "1"}, {"size": "1"}, {"size": "64"}]}}}}}, {"name": "StatefulPartitionedCall/functional_1_1/conv2d_15_1/convolution/merged_input", "op": "Const", "attr": {"dtype": {"type": "DT_FLOAT"}, "value": {"tensor": {"dtype": "DT_FLOAT", "tensorShape": {"dim": [{"size": "1"}, {"size": "1"}, {"size": "256"}, {"size": "64"}]}}}}}, {"name": "StatefulPartitionedCall/functional_1_1/batch_normalization_15_1/batchnorm/sub", "op": "Const", "attr": {"dtype": {"type": "DT_FLOAT"}, "value": {"tensor": {"dtype": "DT_FLOAT", "tensorShape": {"dim": [{"size": "1"}, {"size": "1"}, {"size": "1"}, {"size": "64"}]}}}}}, {"name": "StatefulPartitionedCall/functional_1_1/conv2d_16_1/convolution/merged_input", "op": "Const", "attr": {"dtype": {"type": "DT_FLOAT"}, "value": {"tensor": {"dtype": "DT_FLOAT", "tensorShape": {"dim": [{"size": "3"}, {"size": "3"}, {"size": "64"}, {"size": "96"}]}}}}}, {"name": "StatefulPartitionedCall/functional_1_1/batch_normalization_16_1/batchnorm/sub", "op": "Const", "attr": {"value": {"tensor": {"dtype": "DT_FLOAT", "tensorShape": {"dim": [{"size": "1"}, {"size": "1"}, {"size": "1"}, {"size": "96"}]}}}, "dtype": {"type": "DT_FLOAT"}}}, {"name": "StatefulPartitionedCall/functional_1_1/conv2d_17_1/convolution/merged_input", "op": "Const", "attr": {"dtype": {"type": "DT_FLOAT"}, "value": {"tensor": {"dtype": "DT_FLOAT", "tensorShape": {"dim": [{"size": "3"}, {"size": "3"}, {"size": "96"}, {"size": "96"}]}}}}}, {"name": "StatefulPartitionedCall/functional_1_1/batch_normalization_17_1/batchnorm/sub", "op": "Const", "attr": {"dtype": {"type": "DT_FLOAT"}, "value": {"tensor": {"dtype": "DT_FLOAT", "tensorShape": {"dim": [{"size": "1"}, {"size": "1"}, {"size": "1"}, {"size": "96"}]}}}}}, {"name": "StatefulPartitionedCall/functional_1_1/conv2d_5_1/convolution/merged_input", "op": "Const", "attr": {"value": {"tensor": {"dtype": "DT_FLOAT", "tensorShape": {"dim": [{"size": "1"}, {"size": "1"}, {"size": "192"}, {"size": "64"}]}}}, "dtype": {"type": "DT_FLOAT"}}}, {"name": "StatefulPartitionedCall/functional_1_1/batch_normalization_5_1/batchnorm/sub", "op": "Const", "attr": {"dtype": {"type": "DT_FLOAT"}, "value": {"tensor": {"dtype": "DT_FLOAT", "tensorShape": {"dim": [{"size": "1"}, {"size": "1"}, {"size": "1"}, {"size": "64"}]}}}}}, {"name": "StatefulPartitionedCall/functional_1_1/conv2d_6_1/convolution/merged_input", "op": "Const", "attr": {"value": {"tensor": {"dtype": "DT_FLOAT", "tensorShape": {"dim": [{"size": "1"}, {"size": "1"}, {"size": "192"}, {"size": "48"}]}}}, "dtype": {"type": "DT_FLOAT"}}}, {"name": "StatefulPartitionedCall/functional_1_1/batch_normalization_6_1/batchnorm/sub", "op": "Const", "attr": {"value": {"tensor": {"dtype": "DT_FLOAT", "tensorShape": {"dim": [{"size": "1"}, {"size": "1"}, {"size": "1"}, {"size": "48"}]}}}, "dtype": {"type": "DT_FLOAT"}}}, {"name": "StatefulPartitionedCall/functional_1_1/conv2d_7_1/convolution/merged_input", "op": "Const", "attr": {"dtype": {"type": "DT_FLOAT"}, "value": {"tensor": {"dtype": "DT_FLOAT", "tensorShape": {"dim": [{"size": "5"}, {"size": "5"}, {"size": "48"}, {"size": "64"}]}}}}}, {"name": "StatefulPartitionedCall/functional_1_1/batch_normalization_7_1/batchnorm/sub", "op": "Const", "attr": {"value": {"tensor": {"dtype": "DT_FLOAT", "tensorShape": {"dim": [{"size": "1"}, {"size": "1"}, {"size": "1"}, {"size": "64"}]}}}, "dtype": {"type": "DT_FLOAT"}}}, {"name": "StatefulPartitionedCall/functional_1_1/conv2d_8_1/convolution/merged_input", "op": "Const", "attr": {"value": {"tensor": {"dtype": "DT_FLOAT", "tensorShape": {"dim": [{"size": "1"}, {"size": "1"}, {"size": "192"}, {"size": "64"}]}}}, "dtype": {"type": "DT_FLOAT"}}}, {"name": "StatefulPartitionedCall/functional_1_1/batch_normalization_8_1/batchnorm/sub", "op": "Const", "attr": {"dtype": {"type": "DT_FLOAT"}, "value": {"tensor": {"dtype": "DT_FLOAT", "tensorShape": {"dim": [{"size": "1"}, {"size": "1"}, {"size": "1"}, {"size": "64"}]}}}}}, {"name": "StatefulPartitionedCall/functional_1_1/conv2d_9_1/convolution/merged_input", "op": "Const", "attr": {"dtype": {"type": "DT_FLOAT"}, "value": {"tensor": {"dtype": "DT_FLOAT", "tensorShape": {"dim": [{"size": "3"}, {"size": "3"}, {"size": "64"}, {"size": "96"}]}}}}}, {"name": "StatefulPartitionedCall/functional_1_1/batch_normalization_9_1/batchnorm/sub", "op": "Const", "attr": {"value": {"tensor": {"dtype": "DT_FLOAT", "tensorShape": {"dim": [{"size": "1"}, {"size": "1"}, {"size": "1"}, {"size": "96"}]}}}, "dtype": {"type": "DT_FLOAT"}}}, {"name": "StatefulPartitionedCall/functional_1_1/conv2d_10_1/convolution/merged_input", "op": "Const", "attr": {"dtype": {"type": "DT_FLOAT"}, "value": {"tensor": {"dtype": "DT_FLOAT", "tensorShape": {"dim": [{"size": "3"}, {"size": "3"}, {"size": "96"}, {"size": "96"}]}}}}}, {"name": "StatefulPartitionedCall/functional_1_1/batch_normalization_10_1/batchnorm/sub", "op": "Const", "attr": {"value": {"tensor": {"dtype": "DT_FLOAT", "tensorShape": {"dim": [{"size": "1"}, {"size": "1"}, {"size": "1"}, {"size": "96"}]}}}, "dtype": {"type": "DT_FLOAT"}}}, {"name": "StatefulPartitionedCall/functional_1_1/conv2d_1/convolution/merged_input", "op": "Const", "attr": {"dtype": {"type": "DT_FLOAT"}, "value": {"tensor": {"dtype": "DT_FLOAT", "tensorShape": {"dim": [{"size": "3"}, {"size": "3"}, {"size": "3"}, {"size": "32"}]}}}}}, {"name": "StatefulPartitionedCall/functional_1_1/batch_normalization_1/batchnorm/sub", "op": "Const", "attr": {"value": {"tensor": {"dtype": "DT_FLOAT", "tensorShape": {"dim": [{"size": "1"}, {"size": "1"}, {"size": "1"}, {"size": "32"}]}}}, "dtype": {"type": "DT_FLOAT"}}}, {"name": "StatefulPartitionedCall/functional_1_1/conv2d_1_2/convolution/merged_input", "op": "Const", "attr": {"dtype": {"type": "DT_FLOAT"}, "value": {"tensor": {"dtype": "DT_FLOAT", "tensorShape": {"dim": [{"size": "3"}, {"size": "3"}, {"size": "32"}, {"size": "32"}]}}}}}, {"name": "StatefulPartitionedCall/functional_1_1/batch_normalization_1_2/batchnorm/sub", "op": "Const", "attr": {"dtype": {"type": "DT_FLOAT"}, "value": {"tensor": {"dtype": "DT_FLOAT", "tensorShape": {"dim": [{"size": "1"}, {"size": "1"}, {"size": "1"}, {"size": "32"}]}}}}}, {"name": "StatefulPartitionedCall/functional_1_1/conv2d_2_1/convolution/merged_input", "op": "Const", "attr": {"value": {"tensor": {"dtype": "DT_FLOAT", "tensorShape": {"dim": [{"size": "3"}, {"size": "3"}, {"size": "32"}, {"size": "64"}]}}}, "dtype": {"type": "DT_FLOAT"}}}, {"name": "StatefulPartitionedCall/functional_1_1/batch_normalization_2_1/batchnorm/sub", "op": "Const", "attr": {"value": {"tensor": {"dtype": "DT_FLOAT", "tensorShape": {"dim": [{"size": "1"}, {"size": "1"}, {"size": "1"}, {"size": "64"}]}}}, "dtype": {"type": "DT_FLOAT"}}}, {"name": "StatefulPartitionedCall/functional_1_1/conv2d_3_1/convolution/merged_input", "op": "Const", "attr": {"value": {"tensor": {"dtype": "DT_FLOAT", "tensorShape": {"dim": [{"size": "1"}, {"size": "1"}, {"size": "64"}, {"size": "80"}]}}}, "dtype": {"type": "DT_FLOAT"}}}, {"name": "StatefulPartitionedCall/functional_1_1/batch_normalization_3_1/batchnorm/sub", "op": "Const", "attr": {"value": {"tensor": {"dtype": "DT_FLOAT", "tensorShape": {"dim": [{"size": "1"}, {"size": "1"}, {"size": "1"}, {"size": "80"}]}}}, "dtype": {"type": "DT_FLOAT"}}}, {"name": "StatefulPartitionedCall/functional_1_1/conv2d_4_1/convolution/merged_input", "op": "Const", "attr": {"value": {"tensor": {"dtype": "DT_FLOAT", "tensorShape": {"dim": [{"size": "3"}, {"size": "3"}, {"size": "80"}, {"size": "192"}]}}}, "dtype": {"type": "DT_FLOAT"}}}, {"name": "StatefulPartitionedCall/functional_1_1/batch_normalization_4_1/batchnorm/sub", "op": "Const", "attr": {"value": {"tensor": {"dtype": "DT_FLOAT", "tensorShape": {"dim": [{"size": "1"}, {"size": "1"}, {"size": "1"}, {"size": "192"}]}}}, "dtype": {"type": "DT_FLOAT"}}}, {"name": "StatefulPartitionedCall/functional_1_1/conv2d_11_1/convolution/merged_input", "op": "Const", "attr": {"value": {"tensor": {"dtype": "DT_FLOAT", "tensorShape": {"dim": [{"size": "1"}, {"size": "1"}, {"size": "192"}, {"size": "32"}]}}}, "dtype": {"type": "DT_FLOAT"}}}, {"name": "StatefulPartitionedCall/functional_1_1/batch_normalization_11_1/batchnorm/sub", "op": "Const", "attr": {"value": {"tensor": {"dtype": "DT_FLOAT", "tensorShape": {"dim": [{"size": "1"}, {"size": "1"}, {"size": "1"}, {"size": "32"}]}}}, "dtype": {"type": "DT_FLOAT"}}}, {"name": "StatefulPartitionedCall/functional_1_1/mixed0_1/concat/axis", "op": "Const", "attr": {"dtype": {"type": "DT_INT32"}, "value": {"tensor": {"dtype": "DT_INT32", "tensorShape": {}}}}}, {"name": "StatefulPartitionedCall/functional_1_1/conv2d_18_1/convolution/merged_input", "op": "Const", "attr": {"value": {"tensor": {"dtype": "DT_FLOAT", "tensorShape": {"dim": [{"size": "1"}, {"size": "1"}, {"size": "256"}, {"size": "64"}]}}}, "dtype": {"type": "DT_FLOAT"}}}, {"name": "StatefulPartitionedCall/functional_1_1/batch_normalization_18_1/batchnorm/sub", "op": "Const", "attr": {"dtype": {"type": "DT_FLOAT"}, "value": {"tensor": {"dtype": "DT_FLOAT", "tensorShape": {"dim": [{"size": "1"}, {"size": "1"}, {"size": "1"}, {"size": "64"}]}}}}}, {"name": "StatefulPartitionedCall/functional_1_1/mixed1_1/concat/axis", "op": "Const", "attr": {"value": {"tensor": {"dtype": "DT_INT32", "tensorShape": {}}}, "dtype": {"type": "DT_INT32"}}}, {"name": "StatefulPartitionedCall/functional_1_1/conv2d_25_1/convolution/merged_input", "op": "Const", "attr": {"dtype": {"type": "DT_FLOAT"}, "value": {"tensor": {"dtype": "DT_FLOAT", "tensorShape": {"dim": [{"size": "1"}, {"size": "1"}, {"size": "288"}, {"size": "64"}]}}}}}, {"name": "StatefulPartitionedCall/functional_1_1/batch_normalization_25_1/batchnorm/sub", "op": "Const", "attr": {"value": {"tensor": {"dtype": "DT_FLOAT", "tensorShape": {"dim": [{"size": "1"}, {"size": "1"}, {"size": "1"}, {"size": "64"}]}}}, "dtype": {"type": "DT_FLOAT"}}}, {"name": "StatefulPartitionedCall/functional_1_1/mixed2_1/concat/axis", "op": "Const", "attr": {"value": {"tensor": {"dtype": "DT_INT32", "tensorShape": {}}}, "dtype": {"type": "DT_INT32"}}}, {"name": "StatefulPartitionedCall/functional_1_1/mixed3_1/concat/axis", "op": "Const", "attr": {"dtype": {"type": "DT_INT32"}, "value": {"tensor": {"dtype": "DT_INT32", "tensorShape": {}}}}}, {"name": "StatefulPartitionedCall/functional_1_1/conv2d_39_1/convolution/merged_input", "op": "Const", "attr": {"value": {"tensor": {"dtype": "DT_FLOAT", "tensorShape": {"dim": [{"size": "1"}, {"size": "1"}, {"size": "768"}, {"size": "192"}]}}}, "dtype": {"type": "DT_FLOAT"}}}, {"name": "StatefulPartitionedCall/functional_1_1/batch_normalization_39_1/batchnorm/sub", "op": "Const", "attr": {"dtype": {"type": "DT_FLOAT"}, "value": {"tensor": {"dtype": "DT_FLOAT", "tensorShape": {"dim": [{"size": "1"}, {"size": "1"}, {"size": "1"}, {"size": "192"}]}}}}}, {"name": "StatefulPartitionedCall/functional_1_1/mixed4_1/concat/axis", "op": "Const", "attr": {"dtype": {"type": "DT_INT32"}, "value": {"tensor": {"dtype": "DT_INT32", "tensorShape": {}}}}}, {"name": "StatefulPartitionedCall/functional_1_1/conv2d_49_1/convolution/merged_input", "op": "Const", "attr": {"dtype": {"type": "DT_FLOAT"}, "value": {"tensor": {"dtype": "DT_FLOAT", "tensorShape": {"dim": [{"size": "1"}, {"size": "1"}, {"size": "768"}, {"size": "192"}]}}}}}, {"name": "StatefulPartitionedCall/functional_1_1/batch_normalization_49_1/batchnorm/sub", "op": "Const", "attr": {"value": {"tensor": {"dtype": "DT_FLOAT", "tensorShape": {"dim": [{"size": "1"}, {"size": "1"}, {"size": "1"}, {"size": "192"}]}}}, "dtype": {"type": "DT_FLOAT"}}}, {"name": "StatefulPartitionedCall/functional_1_1/mixed5_1/concat/axis", "op": "Const", "attr": {"value": {"tensor": {"dtype": "DT_INT32", "tensorShape": {}}}, "dtype": {"type": "DT_INT32"}}}, {"name": "StatefulPartitionedCall/functional_1_1/conv2d_94_1/convolution/ReadVariableOp", "op": "Const", "attr": {"dtype": {"type": "DT_FLOAT"}, "value": {"tensor": {"dtype": "DT_FLOAT", "tensorShape": {"dim": [{"size": "3"}, {"size": "3"}, {"size": "768"}, {"size": "64"}]}}}}}, {"name": "StatefulPartitionedCall/functional_1_1/conv2d_94_1/Reshape", "op": "Const", "attr": {"value": {"tensor": {"dtype": "DT_FLOAT", "tensorShape": {"dim": [{"size": "1"}, {"size": "1"}, {"size": "1"}, {"size": "64"}]}}}, "dtype": {"type": "DT_FLOAT"}}}, {"name": "StatefulPartitionedCall/functional_1_1/global_average_pooling2d_1/Mean/reduction_indices", "op": "Const", "attr": {"dtype": {"type": "DT_INT32"}, "value": {"tensor": {"dtype": "DT_INT32", "tensorShape": {"dim": [{"size": "2"}]}}}}}, {"name": "StatefulPartitionedCall/functional_1_1/dense_1/Cast/ReadVariableOp", "op": "Const", "attr": {"value": {"tensor": {"dtype": "DT_FLOAT", "tensorShape": {"dim": [{"size": "64"}, {"size": "1024"}]}}}, "dtype": {"type": "DT_FLOAT"}}}, {"name": "StatefulPartitionedCall/functional_1_1/dense_1/Add/ReadVariableOp", "op": "Const", "attr": {"value": {"tensor": {"dtype": "DT_FLOAT", "tensorShape": {"dim": [{"size": "1024"}]}}}, "dtype": {"type": "DT_FLOAT"}}}, {"name": "StatefulPartitionedCall/functional_1_1/dense_1_2/Cast/ReadVariableOp", "op": "Const", "attr": {"dtype": {"type": "DT_FLOAT"}, "value": {"tensor": {"dtype": "DT_FLOAT", "tensorShape": {"dim": [{"size": "1024"}, {"size": "512"}]}}}}}, {"name": "StatefulPartitionedCall/functional_1_1/dense_1_2/Add/ReadVariableOp", "op": "Const", "attr": {"dtype": {"type": "DT_FLOAT"}, "value": {"tensor": {"dtype": "DT_FLOAT", "tensorShape": {"dim": [{"size": "512"}]}}}}}, {"name": "StatefulPartitionedCall/functional_1_1/dense_2_1/Cast/ReadVariableOp", "op": "Const", "attr": {"dtype": {"type": "DT_FLOAT"}, "value": {"tensor": {"dtype": "DT_FLOAT", "tensorShape": {"dim": [{"size": "512"}, {"size": "1"}]}}}}}, {"name": "StatefulPartitionedCall/functional_1_1/dense_2_1/Add/ReadVariableOp", "op": "Const", "attr": {"value": {"tensor": {"dtype": "DT_FLOAT", "tensorShape": {"dim": [{"size": "1"}]}}}, "dtype": {"type": "DT_FLOAT"}}}, {"name": "keras_tensor_172", "op": "Placeholder", "attr": {"shape": {"shape": {"dim": [{"size": "-1"}, {"size": "150"}, {"size": "150"}, {"size": "3"}]}}, "dtype": {"type": "DT_FLOAT"}}}, {"name": "StatefulPartitionedCall/functional_1_1/activation_1/Relu", "op": "_FusedConv2D", "input": ["keras_tensor_172", "StatefulPartitionedCall/functional_1_1/conv2d_1/convolution/merged_input", "StatefulPartitionedCall/functional_1_1/batch_normalization_1/batchnorm/sub"], "device": "/device:CPU:0", "attr": {"epsilon": {"f": 0.0}, "num_host_args": {"i": "0"}, "num_args": {"i": "1"}, "TArgs": {"list": {"type": ["DT_FLOAT"]}}, "explicit_paddings": {"list": {}}, "padding": {"s": "VkFMSUQ="}, "filter_format": {"s": "SFdJTw=="}, "data_format": {"s": "TkhXQw=="}, "use_cudnn_on_gpu": {"b": true}, "T": {"type": "DT_FLOAT"}, "fused_ops": {"list": {"s": ["Qmlhc0FkZA==", "UmVsdQ=="]}}, "leakyrelu_alpha": {"f": 0.2}, "strides": {"list": {"i": ["1", "2", "2", "1"]}}, "dilations": {"list": {"i": ["1", "1", "1", "1"]}}}}, {"name": "StatefulPartitionedCall/functional_1_1/activation_1_2/Relu", "op": "_FusedConv2D", "input": ["StatefulPartitionedCall/functional_1_1/activation_1/Relu", "StatefulPartitionedCall/functional_1_1/conv2d_1_2/convolution/merged_input", "StatefulPartitionedCall/functional_1_1/batch_normalization_1_2/batchnorm/sub"], "device": "/device:CPU:0", "attr": {"num_args": {"i": "1"}, "TArgs": {"list": {"type": ["DT_FLOAT"]}}, "use_cudnn_on_gpu": {"b": true}, "filter_format": {"s": "SFdJTw=="}, "epsilon": {"f": 0.0}, "T": {"type": "DT_FLOAT"}, "num_host_args": {"i": "0"}, "data_format": {"s": "TkhXQw=="}, "explicit_paddings": {"list": {}}, "dilations": {"list": {"i": ["1", "1", "1", "1"]}}, "fused_ops": {"list": {"s": ["Qmlhc0FkZA==", "UmVsdQ=="]}}, "padding": {"s": "VkFMSUQ="}, "leakyrelu_alpha": {"f": 0.2}, "strides": {"list": {"i": ["1", "1", "1", "1"]}}}}, {"name": "StatefulPartitionedCall/functional_1_1/batch_normalization_2_1/batchnorm/add_1", "op": "_FusedConv2D", "input": ["StatefulPartitionedCall/functional_1_1/activation_1_2/Relu", "StatefulPartitionedCall/functional_1_1/conv2d_2_1/convolution/merged_input", "StatefulPartitionedCall/functional_1_1/batch_normalization_2_1/batchnorm/sub"], "device": "/device:CPU:0", "attr": {"explicit_paddings": {"list": {}}, "fused_ops": {"list": {"s": ["Qmlhc0FkZA=="]}}, "num_host_args": {"i": "0"}, "TArgs": {"list": {"type": ["DT_FLOAT"]}}, "padding": {"s": "U0FNRQ=="}, "num_args": {"i": "1"}, "epsilon": {"f": 0.0}, "data_format": {"s": "TkhXQw=="}, "filter_format": {"s": "SFdJTw=="}, "T": {"type": "DT_FLOAT"}, "dilations": {"list": {"i": ["1", "1", "1", "1"]}}, "strides": {"list": {"i": ["1", "1", "1", "1"]}}, "leakyrelu_alpha": {"f": 0.2}, "use_cudnn_on_gpu": {"b": true}}}, {"name": "StatefulPartitionedCall/functional_1_1/max_pooling2d_1/MaxPool2d", "op": "MaxPool", "input": ["StatefulPartitionedCall/functional_1_1/batch_normalization_2_1/batchnorm/add_1"], "attr": {"ksize": {"list": {"i": ["1", "3", "3", "1"]}}, "data_format": {"s": "TkhXQw=="}, "strides": {"list": {"i": ["1", "2", "2", "1"]}}, "padding": {"s": "VkFMSUQ="}, "explicit_paddings": {"list": {}}, "T": {"type": "DT_FLOAT"}}}, {"name": "StatefulPartitionedCall/functional_1_1/activation_2_1/Relu", "op": "Relu", "input": ["StatefulPartitionedCall/functional_1_1/max_pooling2d_1/MaxPool2d"], "attr": {"T": {"type": "DT_FLOAT"}}}, {"name": "StatefulPartitionedCall/functional_1_1/activation_3_1/Relu", "op": "_FusedConv2D", "input": ["StatefulPartitionedCall/functional_1_1/activation_2_1/Relu", "StatefulPartitionedCall/functional_1_1/conv2d_3_1/convolution/merged_input", "StatefulPartitionedCall/functional_1_1/batch_normalization_3_1/batchnorm/sub"], "device": "/device:CPU:0", "attr": {"data_format": {"s": "TkhXQw=="}, "explicit_paddings": {"list": {}}, "strides": {"list": {"i": ["1", "1", "1", "1"]}}, "leakyrelu_alpha": {"f": 0.2}, "T": {"type": "DT_FLOAT"}, "padding": {"s": "VkFMSUQ="}, "fused_ops": {"list": {"s": ["Qmlhc0FkZA==", "UmVsdQ=="]}}, "TArgs": {"list": {"type": ["DT_FLOAT"]}}, "num_args": {"i": "1"}, "filter_format": {"s": "SFdJTw=="}, "dilations": {"list": {"i": ["1", "1", "1", "1"]}}, "num_host_args": {"i": "0"}, "use_cudnn_on_gpu": {"b": true}, "epsilon": {"f": 0.0}}}, {"name": "StatefulPartitionedCall/functional_1_1/batch_normalization_4_1/batchnorm/add_1", "op": "_FusedConv2D", "input": ["StatefulPartitionedCall/functional_1_1/activation_3_1/Relu", "StatefulPartitionedCall/functional_1_1/conv2d_4_1/convolution/merged_input", "StatefulPartitionedCall/functional_1_1/batch_normalization_4_1/batchnorm/sub"], "device": "/device:CPU:0", "attr": {"T": {"type": "DT_FLOAT"}, "leakyrelu_alpha": {"f": 0.2}, "strides": {"list": {"i": ["1", "1", "1", "1"]}}, "dilations": {"list": {"i": ["1", "1", "1", "1"]}}, "explicit_paddings": {"list": {}}, "num_host_args": {"i": "0"}, "use_cudnn_on_gpu": {"b": true}, "fused_ops": {"list": {"s": ["Qmlhc0FkZA=="]}}, "padding": {"s": "VkFMSUQ="}, "filter_format": {"s": "SFdJTw=="}, "num_args": {"i": "1"}, "TArgs": {"list": {"type": ["DT_FLOAT"]}}, "epsilon": {"f": 0.0}, "data_format": {"s": "TkhXQw=="}}}, {"name": "StatefulPartitionedCall/functional_1_1/max_pooling2d_1_2/MaxPool2d", "op": "MaxPool", "input": ["StatefulPartitionedCall/functional_1_1/batch_normalization_4_1/batchnorm/add_1"], "attr": {"data_format": {"s": "TkhXQw=="}, "strides": {"list": {"i": ["1", "2", "2", "1"]}}, "T": {"type": "DT_FLOAT"}, "ksize": {"list": {"i": ["1", "3", "3", "1"]}}, "explicit_paddings": {"list": {}}, "padding": {"s": "VkFMSUQ="}}}, {"name": "StatefulPartitionedCall/functional_1_1/activation_4_1/Relu", "op": "Relu", "input": ["StatefulPartitionedCall/functional_1_1/max_pooling2d_1_2/MaxPool2d"], "attr": {"T": {"type": "DT_FLOAT"}}}, {"name": "StatefulPartitionedCall/functional_1_1/batch_normalization_5_1/batchnorm/add_1", "op": "_FusedConv2D", "input": ["StatefulPartitionedCall/functional_1_1/activation_4_1/Relu", "StatefulPartitionedCall/functional_1_1/conv2d_5_1/convolution/merged_input", "StatefulPartitionedCall/functional_1_1/batch_normalization_5_1/batchnorm/sub"], "device": "/device:CPU:0", "attr": {"explicit_paddings": {"list": {}}, "epsilon": {"f": 0.0}, "num_args": {"i": "1"}, "padding": {"s": "U0FNRQ=="}, "T": {"type": "DT_FLOAT"}, "dilations": {"list": {"i": ["1", "1", "1", "1"]}}, "leakyrelu_alpha": {"f": 0.2}, "data_format": {"s": "TkhXQw=="}, "strides": {"list": {"i": ["1", "1", "1", "1"]}}, "use_cudnn_on_gpu": {"b": true}, "fused_ops": {"list": {"s": ["Qmlhc0FkZA=="]}}, "num_host_args": {"i": "0"}, "filter_format": {"s": "SFdJTw=="}, "TArgs": {"list": {"type": ["DT_FLOAT"]}}}}, {"name": "StatefulPartitionedCall/functional_1_1/activation_6_1/Relu", "op": "_FusedConv2D", "input": ["StatefulPartitionedCall/functional_1_1/activation_4_1/Relu", "StatefulPartitionedCall/functional_1_1/conv2d_6_1/convolution/merged_input", "StatefulPartitionedCall/functional_1_1/batch_normalization_6_1/batchnorm/sub"], "device": "/device:CPU:0", "attr": {"strides": {"list": {"i": ["1", "1", "1", "1"]}}, "epsilon": {"f": 0.0}, "filter_format": {"s": "SFdJTw=="}, "data_format": {"s": "TkhXQw=="}, "num_host_args": {"i": "0"}, "leakyrelu_alpha": {"f": 0.2}, "fused_ops": {"list": {"s": ["Qmlhc0FkZA==", "UmVsdQ=="]}}, "num_args": {"i": "1"}, "explicit_paddings": {"list": {}}, "use_cudnn_on_gpu": {"b": true}, "padding": {"s": "U0FNRQ=="}, "TArgs": {"list": {"type": ["DT_FLOAT"]}}, "T": {"type": "DT_FLOAT"}, "dilations": {"list": {"i": ["1", "1", "1", "1"]}}}}, {"name": "StatefulPartitionedCall/functional_1_1/activation_8_1/Relu", "op": "_FusedConv2D", "input": ["StatefulPartitionedCall/functional_1_1/activation_4_1/Relu", "StatefulPartitionedCall/functional_1_1/conv2d_8_1/convolution/merged_input", "StatefulPartitionedCall/functional_1_1/batch_normalization_8_1/batchnorm/sub"], "device": "/device:CPU:0", "attr": {"fused_ops": {"list": {"s": ["Qmlhc0FkZA==", "UmVsdQ=="]}}, "strides": {"list": {"i": ["1", "1", "1", "1"]}}, "num_args": {"i": "1"}, "filter_format": {"s": "SFdJTw=="}, "leakyrelu_alpha": {"f": 0.2}, "num_host_args": {"i": "0"}, "epsilon": {"f": 0.0}, "use_cudnn_on_gpu": {"b": true}, "padding": {"s": "U0FNRQ=="}, "dilations": {"list": {"i": ["1", "1", "1", "1"]}}, "explicit_paddings": {"list": {}}, "TArgs": {"list": {"type": ["DT_FLOAT"]}}, "T": {"type": "DT_FLOAT"}, "data_format": {"s": "TkhXQw=="}}}, {"name": "StatefulPartitionedCall/functional_1_1/average_pooling2d_1/AvgPool", "op": "AvgPool", "input": ["StatefulPartitionedCall/functional_1_1/activation_4_1/Relu"], "attr": {"strides": {"list": {"i": ["1", "1", "1", "1"]}}, "T": {"type": "DT_FLOAT"}, "ksize": {"list": {"i": ["1", "3", "3", "1"]}}, "data_format": {"s": "TkhXQw=="}, "padding": {"s": "U0FNRQ=="}}}, {"name": "StatefulPartitionedCall/functional_1_1/batch_normalization_7_1/batchnorm/add_1", "op": "_FusedConv2D", "input": ["StatefulPartitionedCall/functional_1_1/activation_6_1/Relu", "StatefulPartitionedCall/functional_1_1/conv2d_7_1/convolution/merged_input", "StatefulPartitionedCall/functional_1_1/batch_normalization_7_1/batchnorm/sub"], "device": "/device:CPU:0", "attr": {"epsilon": {"f": 0.0}, "explicit_paddings": {"list": {}}, "use_cudnn_on_gpu": {"b": true}, "dilations": {"list": {"i": ["1", "1", "1", "1"]}}, "fused_ops": {"list": {"s": ["Qmlhc0FkZA=="]}}, "T": {"type": "DT_FLOAT"}, "num_args": {"i": "1"}, "TArgs": {"list": {"type": ["DT_FLOAT"]}}, "filter_format": {"s": "SFdJTw=="}, "num_host_args": {"i": "0"}, "leakyrelu_alpha": {"f": 0.2}, "data_format": {"s": "TkhXQw=="}, "padding": {"s": "U0FNRQ=="}, "strides": {"list": {"i": ["1", "1", "1", "1"]}}}}, {"name": "StatefulPartitionedCall/functional_1_1/activation_9_1/Relu", "op": "_FusedConv2D", "input": ["StatefulPartitionedCall/functional_1_1/activation_8_1/Relu", "StatefulPartitionedCall/functional_1_1/conv2d_9_1/convolution/merged_input", "StatefulPartitionedCall/functional_1_1/batch_normalization_9_1/batchnorm/sub"], "device": "/device:CPU:0", "attr": {"dilations": {"list": {"i": ["1", "1", "1", "1"]}}, "filter_format": {"s": "SFdJTw=="}, "TArgs": {"list": {"type": ["DT_FLOAT"]}}, "use_cudnn_on_gpu": {"b": true}, "padding": {"s": "U0FNRQ=="}, "num_args": {"i": "1"}, "epsilon": {"f": 0.0}, "num_host_args": {"i": "0"}, "explicit_paddings": {"list": {}}, "leakyrelu_alpha": {"f": 0.2}, "T": {"type": "DT_FLOAT"}, "data_format": {"s": "TkhXQw=="}, "fused_ops": {"list": {"s": ["Qmlhc0FkZA==", "UmVsdQ=="]}}, "strides": {"list": {"i": ["1", "1", "1", "1"]}}}}, {"name": "StatefulPartitionedCall/functional_1_1/batch_normalization_11_1/batchnorm/add_1", "op": "_FusedConv2D", "input": ["StatefulPartitionedCall/functional_1_1/average_pooling2d_1/AvgPool", "StatefulPartitionedCall/functional_1_1/conv2d_11_1/convolution/merged_input", "StatefulPartitionedCall/functional_1_1/batch_normalization_11_1/batchnorm/sub"], "device": "/device:CPU:0", "attr": {"dilations": {"list": {"i": ["1", "1", "1", "1"]}}, "strides": {"list": {"i": ["1", "1", "1", "1"]}}, "num_host_args": {"i": "0"}, "data_format": {"s": "TkhXQw=="}, "explicit_paddings": {"list": {}}, "TArgs": {"list": {"type": ["DT_FLOAT"]}}, "filter_format": {"s": "SFdJTw=="}, "leakyrelu_alpha": {"f": 0.2}, "epsilon": {"f": 0.0}, "padding": {"s": "U0FNRQ=="}, "num_args": {"i": "1"}, "T": {"type": "DT_FLOAT"}, "use_cudnn_on_gpu": {"b": true}, "fused_ops": {"list": {"s": ["Qmlhc0FkZA=="]}}}}, {"name": "StatefulPartitionedCall/functional_1_1/batch_normalization_10_1/batchnorm/add_1", "op": "_FusedConv2D", "input": ["StatefulPartitionedCall/functional_1_1/activation_9_1/Relu", "StatefulPartitionedCall/functional_1_1/conv2d_10_1/convolution/merged_input", "StatefulPartitionedCall/functional_1_1/batch_normalization_10_1/batchnorm/sub"], "device": "/device:CPU:0", "attr": {"num_args": {"i": "1"}, "TArgs": {"list": {"type": ["DT_FLOAT"]}}, "fused_ops": {"list": {"s": ["Qmlhc0FkZA=="]}}, "filter_format": {"s": "SFdJTw=="}, "padding": {"s": "U0FNRQ=="}, "leakyrelu_alpha": {"f": 0.2}, "data_format": {"s": "TkhXQw=="}, "use_cudnn_on_gpu": {"b": true}, "T": {"type": "DT_FLOAT"}, "num_host_args": {"i": "0"}, "strides": {"list": {"i": ["1", "1", "1", "1"]}}, "explicit_paddings": {"list": {}}, "epsilon": {"f": 0.0}, "dilations": {"list": {"i": ["1", "1", "1", "1"]}}}}, {"name": "StatefulPartitionedCall/functional_1_1/mixed0_1/concat", "op": "ConcatV2", "input": ["StatefulPartitionedCall/functional_1_1/batch_normalization_5_1/batchnorm/add_1", "StatefulPartitionedCall/functional_1_1/batch_normalization_7_1/batchnorm/add_1", "StatefulPartitionedCall/functional_1_1/batch_normalization_10_1/batchnorm/add_1", "StatefulPartitionedCall/functional_1_1/batch_normalization_11_1/batchnorm/add_1", "StatefulPartitionedCall/functional_1_1/mixed0_1/concat/axis"], "attr": {"N": {"i": "4"}, "Tidx": {"type": "DT_INT32"}, "T": {"type": "DT_FLOAT"}}}, {"name": "StatefulPartitionedCall/functional_1_1/activation_5_1/Relu", "op": "Relu", "input": ["StatefulPartitionedCall/functional_1_1/mixed0_1/concat"], "attr": {"T": {"type": "DT_FLOAT"}}}, {"name": "StatefulPartitionedCall/functional_1_1/batch_normalization_12_1/batchnorm/add_1", "op": "_FusedConv2D", "input": ["StatefulPartitionedCall/functional_1_1/activation_5_1/Relu", "StatefulPartitionedCall/functional_1_1/conv2d_12_1/convolution/merged_input", "StatefulPartitionedCall/functional_1_1/batch_normalization_12_1/batchnorm/sub"], "device": "/device:CPU:0", "attr": {"filter_format": {"s": "SFdJTw=="}, "dilations": {"list": {"i": ["1", "1", "1", "1"]}}, "leakyrelu_alpha": {"f": 0.2}, "num_args": {"i": "1"}, "data_format": {"s": "TkhXQw=="}, "T": {"type": "DT_FLOAT"}, "use_cudnn_on_gpu": {"b": true}, "padding": {"s": "U0FNRQ=="}, "explicit_paddings": {"list": {}}, "TArgs": {"list": {"type": ["DT_FLOAT"]}}, "fused_ops": {"list": {"s": ["Qmlhc0FkZA=="]}}, "strides": {"list": {"i": ["1", "1", "1", "1"]}}, "num_host_args": {"i": "0"}, "epsilon": {"f": 0.0}}}, {"name": "StatefulPartitionedCall/functional_1_1/activation_13_1/Relu", "op": "_FusedConv2D", "input": ["StatefulPartitionedCall/functional_1_1/activation_5_1/Relu", "StatefulPartitionedCall/functional_1_1/conv2d_13_1/convolution/merged_input", "StatefulPartitionedCall/functional_1_1/batch_normalization_13_1/batchnorm/sub"], "device": "/device:CPU:0", "attr": {"T": {"type": "DT_FLOAT"}, "fused_ops": {"list": {"s": ["Qmlhc0FkZA==", "UmVsdQ=="]}}, "num_host_args": {"i": "0"}, "data_format": {"s": "TkhXQw=="}, "TArgs": {"list": {"type": ["DT_FLOAT"]}}, "filter_format": {"s": "SFdJTw=="}, "epsilon": {"f": 0.0}, "leakyrelu_alpha": {"f": 0.2}, "strides": {"list": {"i": ["1", "1", "1", "1"]}}, "explicit_paddings": {"list": {}}, "num_args": {"i": "1"}, "padding": {"s": "U0FNRQ=="}, "dilations": {"list": {"i": ["1", "1", "1", "1"]}}, "use_cudnn_on_gpu": {"b": true}}}, {"name": "StatefulPartitionedCall/functional_1_1/activation_15_1/Relu", "op": "_FusedConv2D", "input": ["StatefulPartitionedCall/functional_1_1/activation_5_1/Relu", "StatefulPartitionedCall/functional_1_1/conv2d_15_1/convolution/merged_input", "StatefulPartitionedCall/functional_1_1/batch_normalization_15_1/batchnorm/sub"], "device": "/device:CPU:0", "attr": {"data_format": {"s": "TkhXQw=="}, "dilations": {"list": {"i": ["1", "1", "1", "1"]}}, "TArgs": {"list": {"type": ["DT_FLOAT"]}}, "epsilon": {"f": 0.0}, "explicit_paddings": {"list": {}}, "num_args": {"i": "1"}, "strides": {"list": {"i": ["1", "1", "1", "1"]}}, "leakyrelu_alpha": {"f": 0.2}, "num_host_args": {"i": "0"}, "use_cudnn_on_gpu": {"b": true}, "filter_format": {"s": "SFdJTw=="}, "padding": {"s": "U0FNRQ=="}, "fused_ops": {"list": {"s": ["Qmlhc0FkZA==", "UmVsdQ=="]}}, "T": {"type": "DT_FLOAT"}}}, {"name": "StatefulPartitionedCall/functional_1_1/average_pooling2d_1_2/AvgPool", "op": "AvgPool", "input": ["StatefulPartitionedCall/functional_1_1/activation_5_1/Relu"], "attr": {"ksize": {"list": {"i": ["1", "3", "3", "1"]}}, "T": {"type": "DT_FLOAT"}, "strides": {"list": {"i": ["1", "1", "1", "1"]}}, "data_format": {"s": "TkhXQw=="}, "padding": {"s": "U0FNRQ=="}}}, {"name": "StatefulPartitionedCall/functional_1_1/batch_normalization_14_1/batchnorm/add_1", "op": "_FusedConv2D", "input": ["StatefulPartitionedCall/functional_1_1/activation_13_1/Relu", "StatefulPartitionedCall/functional_1_1/conv2d_14_1/convolution/merged_input", "StatefulPartitionedCall/functional_1_1/batch_normalization_14_1/batchnorm/sub"], "device": "/device:CPU:0", "attr": {"data_format": {"s": "TkhXQw=="}, "num_host_args": {"i": "0"}, "filter_format": {"s": "SFdJTw=="}, "explicit_paddings": {"list": {}}, "strides": {"list": {"i": ["1", "1", "1", "1"]}}, "fused_ops": {"list": {"s": ["Qmlhc0FkZA=="]}}, "dilations": {"list": {"i": ["1", "1", "1", "1"]}}, "use_cudnn_on_gpu": {"b": true}, "epsilon": {"f": 0.0}, "num_args": {"i": "1"}, "T": {"type": "DT_FLOAT"}, "padding": {"s": "U0FNRQ=="}, "TArgs": {"list": {"type": ["DT_FLOAT"]}}, "leakyrelu_alpha": {"f": 0.2}}}, {"name": "StatefulPartitionedCall/functional_1_1/activation_16_1/Relu", "op": "_FusedConv2D", "input": ["StatefulPartitionedCall/functional_1_1/activation_15_1/Relu", "StatefulPartitionedCall/functional_1_1/conv2d_16_1/convolution/merged_input", "StatefulPartitionedCall/functional_1_1/batch_normalization_16_1/batchnorm/sub"], "device": "/device:CPU:0", "attr": {"filter_format": {"s": "SFdJTw=="}, "num_host_args": {"i": "0"}, "dilations": {"list": {"i": ["1", "1", "1", "1"]}}, "num_args": {"i": "1"}, "TArgs": {"list": {"type": ["DT_FLOAT"]}}, "T": {"type": "DT_FLOAT"}, "padding": {"s": "U0FNRQ=="}, "fused_ops": {"list": {"s": ["Qmlhc0FkZA==", "UmVsdQ=="]}}, "explicit_paddings": {"list": {}}, "data_format": {"s": "TkhXQw=="}, "strides": {"list": {"i": ["1", "1", "1", "1"]}}, "leakyrelu_alpha": {"f": 0.2}, "use_cudnn_on_gpu": {"b": true}, "epsilon": {"f": 0.0}}}, {"name": "StatefulPartitionedCall/functional_1_1/batch_normalization_18_1/batchnorm/add_1", "op": "_FusedConv2D", "input": ["StatefulPartitionedCall/functional_1_1/average_pooling2d_1_2/AvgPool", "StatefulPartitionedCall/functional_1_1/conv2d_18_1/convolution/merged_input", "StatefulPartitionedCall/functional_1_1/batch_normalization_18_1/batchnorm/sub"], "device": "/device:CPU:0", "attr": {"explicit_paddings": {"list": {}}, "T": {"type": "DT_FLOAT"}, "use_cudnn_on_gpu": {"b": true}, "num_args": {"i": "1"}, "padding": {"s": "U0FNRQ=="}, "strides": {"list": {"i": ["1", "1", "1", "1"]}}, "num_host_args": {"i": "0"}, "dilations": {"list": {"i": ["1", "1", "1", "1"]}}, "filter_format": {"s": "SFdJTw=="}, "TArgs": {"list": {"type": ["DT_FLOAT"]}}, "fused_ops": {"list": {"s": ["Qmlhc0FkZA=="]}}, "leakyrelu_alpha": {"f": 0.2}, "data_format": {"s": "TkhXQw=="}, "epsilon": {"f": 0.0}}}, {"name": "StatefulPartitionedCall/functional_1_1/batch_normalization_17_1/batchnorm/add_1", "op": "_FusedConv2D", "input": ["StatefulPartitionedCall/functional_1_1/activation_16_1/Relu", "StatefulPartitionedCall/functional_1_1/conv2d_17_1/convolution/merged_input", "StatefulPartitionedCall/functional_1_1/batch_normalization_17_1/batchnorm/sub"], "device": "/device:CPU:0", "attr": {"strides": {"list": {"i": ["1", "1", "1", "1"]}}, "T": {"type": "DT_FLOAT"}, "data_format": {"s": "TkhXQw=="}, "filter_format": {"s": "SFdJTw=="}, "use_cudnn_on_gpu": {"b": true}, "num_host_args": {"i": "0"}, "dilations": {"list": {"i": ["1", "1", "1", "1"]}}, "TArgs": {"list": {"type": ["DT_FLOAT"]}}, "explicit_paddings": {"list": {}}, "fused_ops": {"list": {"s": ["Qmlhc0FkZA=="]}}, "num_args": {"i": "1"}, "padding": {"s": "U0FNRQ=="}, "epsilon": {"f": 0.0}, "leakyrelu_alpha": {"f": 0.2}}}, {"name": "StatefulPartitionedCall/functional_1_1/mixed1_1/concat", "op": "ConcatV2", "input": ["StatefulPartitionedCall/functional_1_1/batch_normalization_12_1/batchnorm/add_1", "StatefulPartitionedCall/functional_1_1/batch_normalization_14_1/batchnorm/add_1", "StatefulPartitionedCall/functional_1_1/batch_normalization_17_1/batchnorm/add_1", "StatefulPartitionedCall/functional_1_1/batch_normalization_18_1/batchnorm/add_1", "StatefulPartitionedCall/functional_1_1/mixed1_1/concat/axis"], "attr": {"N": {"i": "4"}, "Tidx": {"type": "DT_INT32"}, "T": {"type": "DT_FLOAT"}}}, {"name": "StatefulPartitionedCall/functional_1_1/activation_12_1/Relu", "op": "Relu", "input": ["StatefulPartitionedCall/functional_1_1/mixed1_1/concat"], "attr": {"T": {"type": "DT_FLOAT"}}}, {"name": "StatefulPartitionedCall/functional_1_1/batch_normalization_19_1/batchnorm/add_1", "op": "_FusedConv2D", "input": ["StatefulPartitionedCall/functional_1_1/activation_12_1/Relu", "StatefulPartitionedCall/functional_1_1/conv2d_19_1/convolution/merged_input", "StatefulPartitionedCall/functional_1_1/batch_normalization_19_1/batchnorm/sub"], "device": "/device:CPU:0", "attr": {"explicit_paddings": {"list": {}}, "filter_format": {"s": "SFdJTw=="}, "num_args": {"i": "1"}, "T": {"type": "DT_FLOAT"}, "num_host_args": {"i": "0"}, "epsilon": {"f": 0.0}, "leakyrelu_alpha": {"f": 0.2}, "padding": {"s": "U0FNRQ=="}, "data_format": {"s": "TkhXQw=="}, "use_cudnn_on_gpu": {"b": true}, "dilations": {"list": {"i": ["1", "1", "1", "1"]}}, "strides": {"list": {"i": ["1", "1", "1", "1"]}}, "fused_ops": {"list": {"s": ["Qmlhc0FkZA=="]}}, "TArgs": {"list": {"type": ["DT_FLOAT"]}}}}, {"name": "StatefulPartitionedCall/functional_1_1/activation_20_1/Relu", "op": "_FusedConv2D", "input": ["StatefulPartitionedCall/functional_1_1/activation_12_1/Relu", "StatefulPartitionedCall/functional_1_1/conv2d_20_1/convolution/merged_input", "StatefulPartitionedCall/functional_1_1/batch_normalization_20_1/batchnorm/sub"], "device": "/device:CPU:0", "attr": {"num_args": {"i": "1"}, "dilations": {"list": {"i": ["1", "1", "1", "1"]}}, "filter_format": {"s": "SFdJTw=="}, "T": {"type": "DT_FLOAT"}, "strides": {"list": {"i": ["1", "1", "1", "1"]}}, "use_cudnn_on_gpu": {"b": true}, "fused_ops": {"list": {"s": ["Qmlhc0FkZA==", "UmVsdQ=="]}}, "epsilon": {"f": 0.0}, "TArgs": {"list": {"type": ["DT_FLOAT"]}}, "leakyrelu_alpha": {"f": 0.2}, "data_format": {"s": "TkhXQw=="}, "num_host_args": {"i": "0"}, "explicit_paddings": {"list": {}}, "padding": {"s": "U0FNRQ=="}}}, {"name": "StatefulPartitionedCall/functional_1_1/activation_22_1/Relu", "op": "_FusedConv2D", "input": ["StatefulPartitionedCall/functional_1_1/activation_12_1/Relu", "StatefulPartitionedCall/functional_1_1/conv2d_22_1/convolution/merged_input", "StatefulPartitionedCall/functional_1_1/batch_normalization_22_1/batchnorm/sub"], "device": "/device:CPU:0", "attr": {"TArgs": {"list": {"type": ["DT_FLOAT"]}}, "filter_format": {"s": "SFdJTw=="}, "T": {"type": "DT_FLOAT"}, "leakyrelu_alpha": {"f": 0.2}, "epsilon": {"f": 0.0}, "padding": {"s": "U0FNRQ=="}, "num_args": {"i": "1"}, "strides": {"list": {"i": ["1", "1", "1", "1"]}}, "explicit_paddings": {"list": {}}, "use_cudnn_on_gpu": {"b": true}, "num_host_args": {"i": "0"}, "dilations": {"list": {"i": ["1", "1", "1", "1"]}}, "data_format": {"s": "TkhXQw=="}, "fused_ops": {"list": {"s": ["Qmlhc0FkZA==", "UmVsdQ=="]}}}}, {"name": "StatefulPartitionedCall/functional_1_1/average_pooling2d_2_1/AvgPool", "op": "AvgPool", "input": ["StatefulPartitionedCall/functional_1_1/activation_12_1/Relu"], "attr": {"T": {"type": "DT_FLOAT"}, "data_format": {"s": "TkhXQw=="}, "ksize": {"list": {"i": ["1", "3", "3", "1"]}}, "padding": {"s": "U0FNRQ=="}, "strides": {"list": {"i": ["1", "1", "1", "1"]}}}}, {"name": "StatefulPartitionedCall/functional_1_1/batch_normalization_21_1/batchnorm/add_1", "op": "_FusedConv2D", "input": ["StatefulPartitionedCall/functional_1_1/activation_20_1/Relu", "StatefulPartitionedCall/functional_1_1/conv2d_21_1/convolution/merged_input", "StatefulPartitionedCall/functional_1_1/batch_normalization_21_1/batchnorm/sub"], "device": "/device:CPU:0", "attr": {"fused_ops": {"list": {"s": ["Qmlhc0FkZA=="]}}, "padding": {"s": "U0FNRQ=="}, "leakyrelu_alpha": {"f": 0.2}, "num_args": {"i": "1"}, "use_cudnn_on_gpu": {"b": true}, "epsilon": {"f": 0.0}, "T": {"type": "DT_FLOAT"}, "data_format": {"s": "TkhXQw=="}, "explicit_paddings": {"list": {}}, "dilations": {"list": {"i": ["1", "1", "1", "1"]}}, "num_host_args": {"i": "0"}, "TArgs": {"list": {"type": ["DT_FLOAT"]}}, "strides": {"list": {"i": ["1", "1", "1", "1"]}}, "filter_format": {"s": "SFdJTw=="}}}, {"name": "StatefulPartitionedCall/functional_1_1/activation_23_1/Relu", "op": "_FusedConv2D", "input": ["StatefulPartitionedCall/functional_1_1/activation_22_1/Relu", "StatefulPartitionedCall/functional_1_1/conv2d_23_1/convolution/merged_input", "StatefulPartitionedCall/functional_1_1/batch_normalization_23_1/batchnorm/sub"], "device": "/device:CPU:0", "attr": {"TArgs": {"list": {"type": ["DT_FLOAT"]}}, "num_args": {"i": "1"}, "T": {"type": "DT_FLOAT"}, "num_host_args": {"i": "0"}, "data_format": {"s": "TkhXQw=="}, "strides": {"list": {"i": ["1", "1", "1", "1"]}}, "filter_format": {"s": "SFdJTw=="}, "leakyrelu_alpha": {"f": 0.2}, "explicit_paddings": {"list": {}}, "use_cudnn_on_gpu": {"b": true}, "dilations": {"list": {"i": ["1", "1", "1", "1"]}}, "fused_ops": {"list": {"s": ["Qmlhc0FkZA==", "UmVsdQ=="]}}, "padding": {"s": "U0FNRQ=="}, "epsilon": {"f": 0.0}}}, {"name": "StatefulPartitionedCall/functional_1_1/batch_normalization_25_1/batchnorm/add_1", "op": "_FusedConv2D", "input": ["StatefulPartitionedCall/functional_1_1/average_pooling2d_2_1/AvgPool", "StatefulPartitionedCall/functional_1_1/conv2d_25_1/convolution/merged_input", "StatefulPartitionedCall/functional_1_1/batch_normalization_25_1/batchnorm/sub"], "device": "/device:CPU:0", "attr": {"use_cudnn_on_gpu": {"b": true}, "explicit_paddings": {"list": {}}, "TArgs": {"list": {"type": ["DT_FLOAT"]}}, "leakyrelu_alpha": {"f": 0.2}, "epsilon": {"f": 0.0}, "num_host_args": {"i": "0"}, "dilations": {"list": {"i": ["1", "1", "1", "1"]}}, "strides": {"list": {"i": ["1", "1", "1", "1"]}}, "data_format": {"s": "TkhXQw=="}, "fused_ops": {"list": {"s": ["Qmlhc0FkZA=="]}}, "num_args": {"i": "1"}, "filter_format": {"s": "SFdJTw=="}, "padding": {"s": "U0FNRQ=="}, "T": {"type": "DT_FLOAT"}}}, {"name": "StatefulPartitionedCall/functional_1_1/batch_normalization_24_1/batchnorm/add_1", "op": "_FusedConv2D", "input": ["StatefulPartitionedCall/functional_1_1/activation_23_1/Relu", "StatefulPartitionedCall/functional_1_1/conv2d_24_1/convolution/merged_input", "StatefulPartitionedCall/functional_1_1/batch_normalization_24_1/batchnorm/sub"], "device": "/device:CPU:0", "attr": {"strides": {"list": {"i": ["1", "1", "1", "1"]}}, "filter_format": {"s": "SFdJTw=="}, "num_args": {"i": "1"}, "TArgs": {"list": {"type": ["DT_FLOAT"]}}, "num_host_args": {"i": "0"}, "dilations": {"list": {"i": ["1", "1", "1", "1"]}}, "epsilon": {"f": 0.0}, "padding": {"s": "U0FNRQ=="}, "use_cudnn_on_gpu": {"b": true}, "fused_ops": {"list": {"s": ["Qmlhc0FkZA=="]}}, "data_format": {"s": "TkhXQw=="}, "T": {"type": "DT_FLOAT"}, "explicit_paddings": {"list": {}}, "leakyrelu_alpha": {"f": 0.2}}}, {"name": "StatefulPartitionedCall/functional_1_1/mixed2_1/concat", "op": "ConcatV2", "input": ["StatefulPartitionedCall/functional_1_1/batch_normalization_19_1/batchnorm/add_1", "StatefulPartitionedCall/functional_1_1/batch_normalization_21_1/batchnorm/add_1", "StatefulPartitionedCall/functional_1_1/batch_normalization_24_1/batchnorm/add_1", "StatefulPartitionedCall/functional_1_1/batch_normalization_25_1/batchnorm/add_1", "StatefulPartitionedCall/functional_1_1/mixed2_1/concat/axis"], "attr": {"N": {"i": "4"}, "T": {"type": "DT_FLOAT"}, "Tidx": {"type": "DT_INT32"}}}, {"name": "StatefulPartitionedCall/functional_1_1/activation_19_1/Relu", "op": "Relu", "input": ["StatefulPartitionedCall/functional_1_1/mixed2_1/concat"], "attr": {"T": {"type": "DT_FLOAT"}}}, {"name": "StatefulPartitionedCall/functional_1_1/activation_26_1/Relu", "op": "_FusedConv2D", "input": ["StatefulPartitionedCall/functional_1_1/activation_19_1/Relu", "StatefulPartitionedCall/functional_1_1/conv2d_26_1/convolution/merged_input", "StatefulPartitionedCall/functional_1_1/batch_normalization_26_1/batchnorm/sub"], "device": "/device:CPU:0", "attr": {"filter_format": {"s": "SFdJTw=="}, "strides": {"list": {"i": ["1", "2", "2", "1"]}}, "explicit_paddings": {"list": {}}, "epsilon": {"f": 0.0}, "padding": {"s": "VkFMSUQ="}, "dilations": {"list": {"i": ["1", "1", "1", "1"]}}, "use_cudnn_on_gpu": {"b": true}, "num_host_args": {"i": "0"}, "data_format": {"s": "TkhXQw=="}, "leakyrelu_alpha": {"f": 0.2}, "num_args": {"i": "1"}, "T": {"type": "DT_FLOAT"}, "fused_ops": {"list": {"s": ["Qmlhc0FkZA==", "UmVsdQ=="]}}, "TArgs": {"list": {"type": ["DT_FLOAT"]}}}}, {"name": "StatefulPartitionedCall/functional_1_1/activation_27_1/Relu", "op": "_FusedConv2D", "input": ["StatefulPartitionedCall/functional_1_1/activation_19_1/Relu", "StatefulPartitionedCall/functional_1_1/conv2d_27_1/convolution/merged_input", "StatefulPartitionedCall/functional_1_1/batch_normalization_27_1/batchnorm/sub"], "device": "/device:CPU:0", "attr": {"T": {"type": "DT_FLOAT"}, "num_host_args": {"i": "0"}, "data_format": {"s": "TkhXQw=="}, "strides": {"list": {"i": ["1", "1", "1", "1"]}}, "padding": {"s": "U0FNRQ=="}, "use_cudnn_on_gpu": {"b": true}, "num_args": {"i": "1"}, "filter_format": {"s": "SFdJTw=="}, "dilations": {"list": {"i": ["1", "1", "1", "1"]}}, "epsilon": {"f": 0.0}, "fused_ops": {"list": {"s": ["Qmlhc0FkZA==", "UmVsdQ=="]}}, "explicit_paddings": {"list": {}}, "TArgs": {"list": {"type": ["DT_FLOAT"]}}, "leakyrelu_alpha": {"f": 0.2}}}, {"name": "StatefulPartitionedCall/functional_1_1/max_pooling2d_2_1/MaxPool2d", "op": "MaxPool", "input": ["StatefulPartitionedCall/functional_1_1/activation_19_1/Relu"], "attr": {"strides": {"list": {"i": ["1", "2", "2", "1"]}}, "ksize": {"list": {"i": ["1", "3", "3", "1"]}}, "padding": {"s": "VkFMSUQ="}, "T": {"type": "DT_FLOAT"}, "data_format": {"s": "TkhXQw=="}, "explicit_paddings": {"list": {}}}}, {"name": "StatefulPartitionedCall/functional_1_1/activation_28_1/Relu", "op": "_FusedConv2D", "input": ["StatefulPartitionedCall/functional_1_1/activation_27_1/Relu", "StatefulPartitionedCall/functional_1_1/conv2d_28_1/convolution/merged_input", "StatefulPartitionedCall/functional_1_1/batch_normalization_28_1/batchnorm/sub"], "device": "/device:CPU:0", "attr": {"dilations": {"list": {"i": ["1", "1", "1", "1"]}}, "padding": {"s": "U0FNRQ=="}, "use_cudnn_on_gpu": {"b": true}, "explicit_paddings": {"list": {}}, "strides": {"list": {"i": ["1", "1", "1", "1"]}}, "leakyrelu_alpha": {"f": 0.2}, "fused_ops": {"list": {"s": ["Qmlhc0FkZA==", "UmVsdQ=="]}}, "num_args": {"i": "1"}, "T": {"type": "DT_FLOAT"}, "num_host_args": {"i": "0"}, "TArgs": {"list": {"type": ["DT_FLOAT"]}}, "epsilon": {"f": 0.0}, "filter_format": {"s": "SFdJTw=="}, "data_format": {"s": "TkhXQw=="}}}, {"name": "StatefulPartitionedCall/functional_1_1/activation_29_1/Relu", "op": "_FusedConv2D", "input": ["StatefulPartitionedCall/functional_1_1/activation_28_1/Relu", "StatefulPartitionedCall/functional_1_1/conv2d_29_1/convolution/merged_input", "StatefulPartitionedCall/functional_1_1/batch_normalization_29_1/batchnorm/sub"], "device": "/device:CPU:0", "attr": {"epsilon": {"f": 0.0}, "filter_format": {"s": "SFdJTw=="}, "padding": {"s": "VkFMSUQ="}, "strides": {"list": {"i": ["1", "2", "2", "1"]}}, "num_host_args": {"i": "0"}, "dilations": {"list": {"i": ["1", "1", "1", "1"]}}, "num_args": {"i": "1"}, "leakyrelu_alpha": {"f": 0.2}, "data_format": {"s": "TkhXQw=="}, "T": {"type": "DT_FLOAT"}, "fused_ops": {"list": {"s": ["Qmlhc0FkZA==", "UmVsdQ=="]}}, "use_cudnn_on_gpu": {"b": true}, "explicit_paddings": {"list": {}}, "TArgs": {"list": {"type": ["DT_FLOAT"]}}}}, {"name": "StatefulPartitionedCall/functional_1_1/mixed3_1/concat", "op": "ConcatV2", "input": ["StatefulPartitionedCall/functional_1_1/activation_26_1/Relu", "StatefulPartitionedCall/functional_1_1/activation_29_1/Relu", "StatefulPartitionedCall/functional_1_1/max_pooling2d_2_1/MaxPool2d", "StatefulPartitionedCall/functional_1_1/mixed3_1/concat/axis"], "attr": {"T": {"type": "DT_FLOAT"}, "Tidx": {"type": "DT_INT32"}, "N": {"i": "3"}}}, {"name": "StatefulPartitionedCall/functional_1_1/batch_normalization_30_1/batchnorm/add_1", "op": "_FusedConv2D", "input": ["StatefulPartitionedCall/functional_1_1/mixed3_1/concat", "StatefulPartitionedCall/functional_1_1/conv2d_30_1/convolution/merged_input", "StatefulPartitionedCall/functional_1_1/batch_normalization_30_1/batchnorm/sub"], "device": "/device:CPU:0", "attr": {"num_args": {"i": "1"}, "num_host_args": {"i": "0"}, "filter_format": {"s": "SFdJTw=="}, "explicit_paddings": {"list": {}}, "dilations": {"list": {"i": ["1", "1", "1", "1"]}}, "padding": {"s": "U0FNRQ=="}, "epsilon": {"f": 0.0}, "leakyrelu_alpha": {"f": 0.2}, "strides": {"list": {"i": ["1", "1", "1", "1"]}}, "T": {"type": "DT_FLOAT"}, "data_format": {"s": "TkhXQw=="}, "use_cudnn_on_gpu": {"b": true}, "fused_ops": {"list": {"s": ["Qmlhc0FkZA=="]}}, "TArgs": {"list": {"type": ["DT_FLOAT"]}}}}, {"name": "StatefulPartitionedCall/functional_1_1/activation_31_1/Relu", "op": "_FusedConv2D", "input": ["StatefulPartitionedCall/functional_1_1/mixed3_1/concat", "StatefulPartitionedCall/functional_1_1/conv2d_31_1/convolution/merged_input", "StatefulPartitionedCall/functional_1_1/batch_normalization_31_1/batchnorm/sub"], "device": "/device:CPU:0", "attr": {"epsilon": {"f": 0.0}, "num_host_args": {"i": "0"}, "fused_ops": {"list": {"s": ["Qmlhc0FkZA==", "UmVsdQ=="]}}, "explicit_paddings": {"list": {}}, "T": {"type": "DT_FLOAT"}, "TArgs": {"list": {"type": ["DT_FLOAT"]}}, "data_format": {"s": "TkhXQw=="}, "filter_format": {"s": "SFdJTw=="}, "dilations": {"list": {"i": ["1", "1", "1", "1"]}}, "use_cudnn_on_gpu": {"b": true}, "padding": {"s": "U0FNRQ=="}, "strides": {"list": {"i": ["1", "1", "1", "1"]}}, "num_args": {"i": "1"}, "leakyrelu_alpha": {"f": 0.2}}}, {"name": "StatefulPartitionedCall/functional_1_1/activation_34_1/Relu", "op": "_FusedConv2D", "input": ["StatefulPartitionedCall/functional_1_1/mixed3_1/concat", "StatefulPartitionedCall/functional_1_1/conv2d_34_1/convolution/merged_input", "StatefulPartitionedCall/functional_1_1/batch_normalization_34_1/batchnorm/sub"], "device": "/device:CPU:0", "attr": {"use_cudnn_on_gpu": {"b": true}, "fused_ops": {"list": {"s": ["Qmlhc0FkZA==", "UmVsdQ=="]}}, "strides": {"list": {"i": ["1", "1", "1", "1"]}}, "epsilon": {"f": 0.0}, "num_host_args": {"i": "0"}, "TArgs": {"list": {"type": ["DT_FLOAT"]}}, "leakyrelu_alpha": {"f": 0.2}, "num_args": {"i": "1"}, "dilations": {"list": {"i": ["1", "1", "1", "1"]}}, "T": {"type": "DT_FLOAT"}, "padding": {"s": "U0FNRQ=="}, "explicit_paddings": {"list": {}}, "filter_format": {"s": "SFdJTw=="}, "data_format": {"s": "TkhXQw=="}}}, {"name": "StatefulPartitionedCall/functional_1_1/average_pooling2d_3_1/AvgPool", "op": "AvgPool", "input": ["StatefulPartitionedCall/functional_1_1/mixed3_1/concat"], "attr": {"padding": {"s": "U0FNRQ=="}, "T": {"type": "DT_FLOAT"}, "data_format": {"s": "TkhXQw=="}, "strides": {"list": {"i": ["1", "1", "1", "1"]}}, "ksize": {"list": {"i": ["1", "3", "3", "1"]}}}}, {"name": "StatefulPartitionedCall/functional_1_1/activation_32_1/Relu", "op": "_FusedConv2D", "input": ["StatefulPartitionedCall/functional_1_1/activation_31_1/Relu", "StatefulPartitionedCall/functional_1_1/conv2d_32_1/convolution/merged_input", "StatefulPartitionedCall/functional_1_1/batch_normalization_32_1/batchnorm/sub"], "device": "/device:CPU:0", "attr": {"TArgs": {"list": {"type": ["DT_FLOAT"]}}, "use_cudnn_on_gpu": {"b": true}, "explicit_paddings": {"list": {}}, "fused_ops": {"list": {"s": ["Qmlhc0FkZA==", "UmVsdQ=="]}}, "strides": {"list": {"i": ["1", "1", "1", "1"]}}, "data_format": {"s": "TkhXQw=="}, "num_host_args": {"i": "0"}, "padding": {"s": "U0FNRQ=="}, "epsilon": {"f": 0.0}, "leakyrelu_alpha": {"f": 0.2}, "dilations": {"list": {"i": ["1", "1", "1", "1"]}}, "filter_format": {"s": "SFdJTw=="}, "T": {"type": "DT_FLOAT"}, "num_args": {"i": "1"}}}, {"name": "StatefulPartitionedCall/functional_1_1/activation_35_1/Relu", "op": "_FusedConv2D", "input": ["StatefulPartitionedCall/functional_1_1/activation_34_1/Relu", "StatefulPartitionedCall/functional_1_1/conv2d_35_1/convolution/merged_input", "StatefulPartitionedCall/functional_1_1/batch_normalization_35_1/batchnorm/sub"], "device": "/device:CPU:0", "attr": {"strides": {"list": {"i": ["1", "1", "1", "1"]}}, "num_args": {"i": "1"}, "fused_ops": {"list": {"s": ["Qmlhc0FkZA==", "UmVsdQ=="]}}, "dilations": {"list": {"i": ["1", "1", "1", "1"]}}, "num_host_args": {"i": "0"}, "explicit_paddings": {"list": {}}, "padding": {"s": "U0FNRQ=="}, "data_format": {"s": "TkhXQw=="}, "TArgs": {"list": {"type": ["DT_FLOAT"]}}, "filter_format": {"s": "SFdJTw=="}, "use_cudnn_on_gpu": {"b": true}, "epsilon": {"f": 0.0}, "T": {"type": "DT_FLOAT"}, "leakyrelu_alpha": {"f": 0.2}}}, {"name": "StatefulPartitionedCall/functional_1_1/batch_normalization_39_1/batchnorm/add_1", "op": "_FusedConv2D", "input": ["StatefulPartitionedCall/functional_1_1/average_pooling2d_3_1/AvgPool", "StatefulPartitionedCall/functional_1_1/conv2d_39_1/convolution/merged_input", "StatefulPartitionedCall/functional_1_1/batch_normalization_39_1/batchnorm/sub"], "device": "/device:CPU:0", "attr": {"fused_ops": {"list": {"s": ["Qmlhc0FkZA=="]}}, "filter_format": {"s": "SFdJTw=="}, "padding": {"s": "U0FNRQ=="}, "num_host_args": {"i": "0"}, "leakyrelu_alpha": {"f": 0.2}, "dilations": {"list": {"i": ["1", "1", "1", "1"]}}, "T": {"type": "DT_FLOAT"}, "use_cudnn_on_gpu": {"b": true}, "num_args": {"i": "1"}, "TArgs": {"list": {"type": ["DT_FLOAT"]}}, "data_format": {"s": "TkhXQw=="}, "strides": {"list": {"i": ["1", "1", "1", "1"]}}, "epsilon": {"f": 0.0}, "explicit_paddings": {"list": {}}}}, {"name": "StatefulPartitionedCall/functional_1_1/batch_normalization_33_1/batchnorm/add_1", "op": "_FusedConv2D", "input": ["StatefulPartitionedCall/functional_1_1/activation_32_1/Relu", "StatefulPartitionedCall/functional_1_1/conv2d_33_1/convolution/merged_input", "StatefulPartitionedCall/functional_1_1/batch_normalization_33_1/batchnorm/sub"], "device": "/device:CPU:0", "attr": {"padding": {"s": "U0FNRQ=="}, "data_format": {"s": "TkhXQw=="}, "leakyrelu_alpha": {"f": 0.2}, "strides": {"list": {"i": ["1", "1", "1", "1"]}}, "epsilon": {"f": 0.0}, "num_args": {"i": "1"}, "fused_ops": {"list": {"s": ["Qmlhc0FkZA=="]}}, "T": {"type": "DT_FLOAT"}, "dilations": {"list": {"i": ["1", "1", "1", "1"]}}, "filter_format": {"s": "SFdJTw=="}, "num_host_args": {"i": "0"}, "explicit_paddings": {"list": {}}, "TArgs": {"list": {"type": ["DT_FLOAT"]}}, "use_cudnn_on_gpu": {"b": true}}}, {"name": "StatefulPartitionedCall/functional_1_1/activation_36_1/Relu", "op": "_FusedConv2D", "input": ["StatefulPartitionedCall/functional_1_1/activation_35_1/Relu", "StatefulPartitionedCall/functional_1_1/conv2d_36_1/convolution/merged_input", "StatefulPartitionedCall/functional_1_1/batch_normalization_36_1/batchnorm/sub"], "device": "/device:CPU:0", "attr": {"T": {"type": "DT_FLOAT"}, "dilations": {"list": {"i": ["1", "1", "1", "1"]}}, "use_cudnn_on_gpu": {"b": true}, "leakyrelu_alpha": {"f": 0.2}, "epsilon": {"f": 0.0}, "explicit_paddings": {"list": {}}, "num_host_args": {"i": "0"}, "padding": {"s": "U0FNRQ=="}, "num_args": {"i": "1"}, "TArgs": {"list": {"type": ["DT_FLOAT"]}}, "filter_format": {"s": "SFdJTw=="}, "strides": {"list": {"i": ["1", "1", "1", "1"]}}, "data_format": {"s": "TkhXQw=="}, "fused_ops": {"list": {"s": ["Qmlhc0FkZA==", "UmVsdQ=="]}}}}, {"name": "StatefulPartitionedCall/functional_1_1/activation_37_1/Relu", "op": "_FusedConv2D", "input": ["StatefulPartitionedCall/functional_1_1/activation_36_1/Relu", "StatefulPartitionedCall/functional_1_1/conv2d_37_1/convolution/merged_input", "StatefulPartitionedCall/functional_1_1/batch_normalization_37_1/batchnorm/sub"], "device": "/device:CPU:0", "attr": {"TArgs": {"list": {"type": ["DT_FLOAT"]}}, "padding": {"s": "U0FNRQ=="}, "strides": {"list": {"i": ["1", "1", "1", "1"]}}, "filter_format": {"s": "SFdJTw=="}, "fused_ops": {"list": {"s": ["Qmlhc0FkZA==", "UmVsdQ=="]}}, "epsilon": {"f": 0.0}, "data_format": {"s": "TkhXQw=="}, "explicit_paddings": {"list": {}}, "dilations": {"list": {"i": ["1", "1", "1", "1"]}}, "T": {"type": "DT_FLOAT"}, "leakyrelu_alpha": {"f": 0.2}, "num_host_args": {"i": "0"}, "use_cudnn_on_gpu": {"b": true}, "num_args": {"i": "1"}}}, {"name": "StatefulPartitionedCall/functional_1_1/batch_normalization_38_1/batchnorm/add_1", "op": "_FusedConv2D", "input": ["StatefulPartitionedCall/functional_1_1/activation_37_1/Relu", "StatefulPartitionedCall/functional_1_1/conv2d_38_1/convolution/merged_input", "StatefulPartitionedCall/functional_1_1/batch_normalization_38_1/batchnorm/sub"], "device": "/device:CPU:0", "attr": {"padding": {"s": "U0FNRQ=="}, "filter_format": {"s": "SFdJTw=="}, "epsilon": {"f": 0.0}, "data_format": {"s": "TkhXQw=="}, "strides": {"list": {"i": ["1", "1", "1", "1"]}}, "explicit_paddings": {"list": {}}, "T": {"type": "DT_FLOAT"}, "fused_ops": {"list": {"s": ["Qmlhc0FkZA=="]}}, "num_host_args": {"i": "0"}, "num_args": {"i": "1"}, "TArgs": {"list": {"type": ["DT_FLOAT"]}}, "use_cudnn_on_gpu": {"b": true}, "leakyrelu_alpha": {"f": 0.2}, "dilations": {"list": {"i": ["1", "1", "1", "1"]}}}}, {"name": "StatefulPartitionedCall/functional_1_1/mixed4_1/concat", "op": "ConcatV2", "input": ["StatefulPartitionedCall/functional_1_1/batch_normalization_30_1/batchnorm/add_1", "StatefulPartitionedCall/functional_1_1/batch_normalization_33_1/batchnorm/add_1", "StatefulPartitionedCall/functional_1_1/batch_normalization_38_1/batchnorm/add_1", "StatefulPartitionedCall/functional_1_1/batch_normalization_39_1/batchnorm/add_1", "StatefulPartitionedCall/functional_1_1/mixed4_1/concat/axis"], "attr": {"T": {"type": "DT_FLOAT"}, "N": {"i": "4"}, "Tidx": {"type": "DT_INT32"}}}, {"name": "StatefulPartitionedCall/functional_1_1/activation_30_1/Relu", "op": "Relu", "input": ["StatefulPartitionedCall/functional_1_1/mixed4_1/concat"], "attr": {"T": {"type": "DT_FLOAT"}}}, {"name": "StatefulPartitionedCall/functional_1_1/batch_normalization_40_1/batchnorm/add_1", "op": "_FusedConv2D", "input": ["StatefulPartitionedCall/functional_1_1/activation_30_1/Relu", "StatefulPartitionedCall/functional_1_1/conv2d_40_1/convolution/merged_input", "StatefulPartitionedCall/functional_1_1/batch_normalization_40_1/batchnorm/sub"], "device": "/device:CPU:0", "attr": {"filter_format": {"s": "SFdJTw=="}, "leakyrelu_alpha": {"f": 0.2}, "explicit_paddings": {"list": {}}, "dilations": {"list": {"i": ["1", "1", "1", "1"]}}, "TArgs": {"list": {"type": ["DT_FLOAT"]}}, "epsilon": {"f": 0.0}, "num_args": {"i": "1"}, "strides": {"list": {"i": ["1", "1", "1", "1"]}}, "padding": {"s": "U0FNRQ=="}, "use_cudnn_on_gpu": {"b": true}, "data_format": {"s": "TkhXQw=="}, "fused_ops": {"list": {"s": ["Qmlhc0FkZA=="]}}, "num_host_args": {"i": "0"}, "T": {"type": "DT_FLOAT"}}}, {"name": "StatefulPartitionedCall/functional_1_1/activation_41_1/Relu", "op": "_FusedConv2D", "input": ["StatefulPartitionedCall/functional_1_1/activation_30_1/Relu", "StatefulPartitionedCall/functional_1_1/conv2d_41_1/convolution/merged_input", "StatefulPartitionedCall/functional_1_1/batch_normalization_41_1/batchnorm/sub"], "device": "/device:CPU:0", "attr": {"leakyrelu_alpha": {"f": 0.2}, "strides": {"list": {"i": ["1", "1", "1", "1"]}}, "data_format": {"s": "TkhXQw=="}, "num_host_args": {"i": "0"}, "num_args": {"i": "1"}, "TArgs": {"list": {"type": ["DT_FLOAT"]}}, "use_cudnn_on_gpu": {"b": true}, "dilations": {"list": {"i": ["1", "1", "1", "1"]}}, "filter_format": {"s": "SFdJTw=="}, "explicit_paddings": {"list": {}}, "fused_ops": {"list": {"s": ["Qmlhc0FkZA==", "UmVsdQ=="]}}, "T": {"type": "DT_FLOAT"}, "padding": {"s": "U0FNRQ=="}, "epsilon": {"f": 0.0}}}, {"name": "StatefulPartitionedCall/functional_1_1/average_pooling2d_4_1/AvgPool", "op": "AvgPool", "input": ["StatefulPartitionedCall/functional_1_1/activation_30_1/Relu"], "attr": {"data_format": {"s": "TkhXQw=="}, "ksize": {"list": {"i": ["1", "3", "3", "1"]}}, "strides": {"list": {"i": ["1", "1", "1", "1"]}}, "T": {"type": "DT_FLOAT"}, "padding": {"s": "U0FNRQ=="}}}, {"name": "StatefulPartitionedCall/functional_1_1/activation_44_1/Relu", "op": "_FusedConv2D", "input": ["StatefulPartitionedCall/functional_1_1/activation_30_1/Relu", "StatefulPartitionedCall/functional_1_1/conv2d_44_1/convolution/merged_input", "StatefulPartitionedCall/functional_1_1/batch_normalization_44_1/batchnorm/sub"], "device": "/device:CPU:0", "attr": {"padding": {"s": "U0FNRQ=="}, "dilations": {"list": {"i": ["1", "1", "1", "1"]}}, "strides": {"list": {"i": ["1", "1", "1", "1"]}}, "fused_ops": {"list": {"s": ["Qmlhc0FkZA==", "UmVsdQ=="]}}, "filter_format": {"s": "SFdJTw=="}, "num_host_args": {"i": "0"}, "num_args": {"i": "1"}, "use_cudnn_on_gpu": {"b": true}, "explicit_paddings": {"list": {}}, "data_format": {"s": "TkhXQw=="}, "epsilon": {"f": 0.0}, "TArgs": {"list": {"type": ["DT_FLOAT"]}}, "T": {"type": "DT_FLOAT"}, "leakyrelu_alpha": {"f": 0.2}}}, {"name": "StatefulPartitionedCall/functional_1_1/activation_42_1/Relu", "op": "_FusedConv2D", "input": ["StatefulPartitionedCall/functional_1_1/activation_41_1/Relu", "StatefulPartitionedCall/functional_1_1/conv2d_42_1/convolution/merged_input", "StatefulPartitionedCall/functional_1_1/batch_normalization_42_1/batchnorm/sub"], "device": "/device:CPU:0", "attr": {"dilations": {"list": {"i": ["1", "1", "1", "1"]}}, "TArgs": {"list": {"type": ["DT_FLOAT"]}}, "filter_format": {"s": "SFdJTw=="}, "num_host_args": {"i": "0"}, "T": {"type": "DT_FLOAT"}, "fused_ops": {"list": {"s": ["Qmlhc0FkZA==", "UmVsdQ=="]}}, "leakyrelu_alpha": {"f": 0.2}, "explicit_paddings": {"list": {}}, "strides": {"list": {"i": ["1", "1", "1", "1"]}}, "data_format": {"s": "TkhXQw=="}, "padding": {"s": "U0FNRQ=="}, "epsilon": {"f": 0.0}, "num_args": {"i": "1"}, "use_cudnn_on_gpu": {"b": true}}}, {"name": "StatefulPartitionedCall/functional_1_1/batch_normalization_49_1/batchnorm/add_1", "op": "_FusedConv2D", "input": ["StatefulPartitionedCall/functional_1_1/average_pooling2d_4_1/AvgPool", "StatefulPartitionedCall/functional_1_1/conv2d_49_1/convolution/merged_input", "StatefulPartitionedCall/functional_1_1/batch_normalization_49_1/batchnorm/sub"], "device": "/device:CPU:0", "attr": {"T": {"type": "DT_FLOAT"}, "explicit_paddings": {"list": {}}, "leakyrelu_alpha": {"f": 0.2}, "filter_format": {"s": "SFdJTw=="}, "num_host_args": {"i": "0"}, "data_format": {"s": "TkhXQw=="}, "fused_ops": {"list": {"s": ["Qmlhc0FkZA=="]}}, "padding": {"s": "U0FNRQ=="}, "num_args": {"i": "1"}, "strides": {"list": {"i": ["1", "1", "1", "1"]}}, "use_cudnn_on_gpu": {"b": true}, "dilations": {"list": {"i": ["1", "1", "1", "1"]}}, "TArgs": {"list": {"type": ["DT_FLOAT"]}}, "epsilon": {"f": 0.0}}}, {"name": "StatefulPartitionedCall/functional_1_1/activation_45_1/Relu", "op": "_FusedConv2D", "input": ["StatefulPartitionedCall/functional_1_1/activation_44_1/Relu", "StatefulPartitionedCall/functional_1_1/conv2d_45_1/convolution/merged_input", "StatefulPartitionedCall/functional_1_1/batch_normalization_45_1/batchnorm/sub"], "device": "/device:CPU:0", "attr": {"leakyrelu_alpha": {"f": 0.2}, "explicit_paddings": {"list": {}}, "T": {"type": "DT_FLOAT"}, "dilations": {"list": {"i": ["1", "1", "1", "1"]}}, "use_cudnn_on_gpu": {"b": true}, "padding": {"s": "U0FNRQ=="}, "fused_ops": {"list": {"s": ["Qmlhc0FkZA==", "UmVsdQ=="]}}, "filter_format": {"s": "SFdJTw=="}, "num_args": {"i": "1"}, "TArgs": {"list": {"type": ["DT_FLOAT"]}}, "num_host_args": {"i": "0"}, "strides": {"list": {"i": ["1", "1", "1", "1"]}}, "epsilon": {"f": 0.0}, "data_format": {"s": "TkhXQw=="}}}, {"name": "StatefulPartitionedCall/functional_1_1/batch_normalization_43_1/batchnorm/add_1", "op": "_FusedConv2D", "input": ["StatefulPartitionedCall/functional_1_1/activation_42_1/Relu", "StatefulPartitionedCall/functional_1_1/conv2d_43_1/convolution/merged_input", "StatefulPartitionedCall/functional_1_1/batch_normalization_43_1/batchnorm/sub"], "device": "/device:CPU:0", "attr": {"num_args": {"i": "1"}, "data_format": {"s": "TkhXQw=="}, "use_cudnn_on_gpu": {"b": true}, "T": {"type": "DT_FLOAT"}, "epsilon": {"f": 0.0}, "strides": {"list": {"i": ["1", "1", "1", "1"]}}, "fused_ops": {"list": {"s": ["Qmlhc0FkZA=="]}}, "explicit_paddings": {"list": {}}, "num_host_args": {"i": "0"}, "leakyrelu_alpha": {"f": 0.2}, "filter_format": {"s": "SFdJTw=="}, "padding": {"s": "U0FNRQ=="}, "dilations": {"list": {"i": ["1", "1", "1", "1"]}}, "TArgs": {"list": {"type": ["DT_FLOAT"]}}}}, {"name": "StatefulPartitionedCall/functional_1_1/activation_46_1/Relu", "op": "_FusedConv2D", "input": ["StatefulPartitionedCall/functional_1_1/activation_45_1/Relu", "StatefulPartitionedCall/functional_1_1/conv2d_46_1/convolution/merged_input", "StatefulPartitionedCall/functional_1_1/batch_normalization_46_1/batchnorm/sub"], "device": "/device:CPU:0", "attr": {"num_host_args": {"i": "0"}, "use_cudnn_on_gpu": {"b": true}, "num_args": {"i": "1"}, "epsilon": {"f": 0.0}, "filter_format": {"s": "SFdJTw=="}, "strides": {"list": {"i": ["1", "1", "1", "1"]}}, "TArgs": {"list": {"type": ["DT_FLOAT"]}}, "explicit_paddings": {"list": {}}, "fused_ops": {"list": {"s": ["Qmlhc0FkZA==", "UmVsdQ=="]}}, "padding": {"s": "U0FNRQ=="}, "dilations": {"list": {"i": ["1", "1", "1", "1"]}}, "T": {"type": "DT_FLOAT"}, "leakyrelu_alpha": {"f": 0.2}, "data_format": {"s": "TkhXQw=="}}}, {"name": "StatefulPartitionedCall/functional_1_1/activation_47_1/Relu", "op": "_FusedConv2D", "input": ["StatefulPartitionedCall/functional_1_1/activation_46_1/Relu", "StatefulPartitionedCall/functional_1_1/conv2d_47_1/convolution/merged_input", "StatefulPartitionedCall/functional_1_1/batch_normalization_47_1/batchnorm/sub"], "device": "/device:CPU:0", "attr": {"use_cudnn_on_gpu": {"b": true}, "data_format": {"s": "TkhXQw=="}, "T": {"type": "DT_FLOAT"}, "explicit_paddings": {"list": {}}, "dilations": {"list": {"i": ["1", "1", "1", "1"]}}, "fused_ops": {"list": {"s": ["Qmlhc0FkZA==", "UmVsdQ=="]}}, "epsilon": {"f": 0.0}, "num_host_args": {"i": "0"}, "leakyrelu_alpha": {"f": 0.2}, "filter_format": {"s": "SFdJTw=="}, "num_args": {"i": "1"}, "padding": {"s": "U0FNRQ=="}, "strides": {"list": {"i": ["1", "1", "1", "1"]}}, "TArgs": {"list": {"type": ["DT_FLOAT"]}}}}, {"name": "StatefulPartitionedCall/functional_1_1/batch_normalization_48_1/batchnorm/add_1", "op": "_FusedConv2D", "input": ["StatefulPartitionedCall/functional_1_1/activation_47_1/Relu", "StatefulPartitionedCall/functional_1_1/conv2d_48_1/convolution/merged_input", "StatefulPartitionedCall/functional_1_1/batch_normalization_48_1/batchnorm/sub"], "device": "/device:CPU:0", "attr": {"TArgs": {"list": {"type": ["DT_FLOAT"]}}, "use_cudnn_on_gpu": {"b": true}, "fused_ops": {"list": {"s": ["Qmlhc0FkZA=="]}}, "data_format": {"s": "TkhXQw=="}, "filter_format": {"s": "SFdJTw=="}, "epsilon": {"f": 0.0}, "num_host_args": {"i": "0"}, "T": {"type": "DT_FLOAT"}, "leakyrelu_alpha": {"f": 0.2}, "num_args": {"i": "1"}, "dilations": {"list": {"i": ["1", "1", "1", "1"]}}, "explicit_paddings": {"list": {}}, "strides": {"list": {"i": ["1", "1", "1", "1"]}}, "padding": {"s": "U0FNRQ=="}}}, {"name": "StatefulPartitionedCall/functional_1_1/mixed5_1/concat", "op": "ConcatV2", "input": ["StatefulPartitionedCall/functional_1_1/batch_normalization_40_1/batchnorm/add_1", "StatefulPartitionedCall/functional_1_1/batch_normalization_43_1/batchnorm/add_1", "StatefulPartitionedCall/functional_1_1/batch_normalization_48_1/batchnorm/add_1", "StatefulPartitionedCall/functional_1_1/batch_normalization_49_1/batchnorm/add_1", "StatefulPartitionedCall/functional_1_1/mixed5_1/concat/axis"], "attr": {"N": {"i": "4"}, "Tidx": {"type": "DT_INT32"}, "T": {"type": "DT_FLOAT"}}}, {"name": "StatefulPartitionedCall/functional_1_1/max_pooling2d_4_1/MaxPool2d", "op": "MaxPool", "input": ["StatefulPartitionedCall/functional_1_1/mixed5_1/concat"], "attr": {"explicit_paddings": {"list": {}}, "ksize": {"list": {"i": ["1", "2", "2", "1"]}}, "padding": {"s": "VkFMSUQ="}, "T": {"type": "DT_FLOAT"}, "strides": {"list": {"i": ["1", "2", "2", "1"]}}, "data_format": {"s": "TkhXQw=="}}}, {"name": "StatefulPartitionedCall/functional_1_1/activation_40_1/Relu", "op": "Relu", "input": ["StatefulPartitionedCall/functional_1_1/max_pooling2d_4_1/MaxPool2d"], "attr": {"T": {"type": "DT_FLOAT"}}}, {"name": "StatefulPartitionedCall/functional_1_1/conv2d_94_1/Relu", "op": "_FusedConv2D", "input": ["StatefulPartitionedCall/functional_1_1/activation_40_1/Relu", "StatefulPartitionedCall/functional_1_1/conv2d_94_1/convolution/ReadVariableOp", "StatefulPartitionedCall/functional_1_1/conv2d_94_1/Reshape"], "device": "/device:CPU:0", "attr": {"fused_ops": {"list": {"s": ["Qmlhc0FkZA==", "UmVsdQ=="]}}, "leakyrelu_alpha": {"f": 0.2}, "data_format": {"s": "TkhXQw=="}, "filter_format": {"s": "SFdJTw=="}, "use_cudnn_on_gpu": {"b": true}, "padding": {"s": "U0FNRQ=="}, "TArgs": {"list": {"type": ["DT_FLOAT"]}}, "dilations": {"list": {"i": ["1", "1", "1", "1"]}}, "epsilon": {"f": 0.0}, "explicit_paddings": {"list": {}}, "num_args": {"i": "1"}, "T": {"type": "DT_FLOAT"}, "num_host_args": {"i": "0"}, "strides": {"list": {"i": ["1", "1", "1", "1"]}}}}, {"name": "StatefulPartitionedCall/functional_1_1/global_average_pooling2d_1/Mean", "op": "Mean", "input": ["StatefulPartitionedCall/functional_1_1/conv2d_94_1/Relu", "StatefulPartitionedCall/functional_1_1/global_average_pooling2d_1/Mean/reduction_indices"], "attr": {"keep_dims": {"b": false}, "T": {"type": "DT_FLOAT"}, "Tidx": {"type": "DT_INT32"}}}, {"name": "StatefulPartitionedCall/functional_1_1/dense_1/Relu", "op": "_FusedMatMul", "input": ["StatefulPartitionedCall/functional_1_1/global_average_pooling2d_1/Mean", "StatefulPartitionedCall/functional_1_1/dense_1/Cast/ReadVariableOp", "StatefulPartitionedCall/functional_1_1/dense_1/Add/ReadVariableOp"], "device": "/device:CPU:0", "attr": {"leakyrelu_alpha": {"f": 0.2}, "num_args": {"i": "1"}, "T": {"type": "DT_FLOAT"}, "epsilon": {"f": 0.0}, "fused_ops": {"list": {"s": ["Qmlhc0FkZA==", "UmVsdQ=="]}}, "transpose_a": {"b": false}, "transpose_b": {"b": false}}}, {"name": "StatefulPartitionedCall/functional_1_1/dense_1_2/Relu", "op": "_FusedMatMul", "input": ["StatefulPartitionedCall/functional_1_1/dense_1/Relu", "StatefulPartitionedCall/functional_1_1/dense_1_2/Cast/ReadVariableOp", "StatefulPartitionedCall/functional_1_1/dense_1_2/Add/ReadVariableOp"], "device": "/device:CPU:0", "attr": {"leakyrelu_alpha": {"f": 0.2}, "transpose_a": {"b": false}, "transpose_b": {"b": false}, "fused_ops": {"list": {"s": ["Qmlhc0FkZA==", "UmVsdQ=="]}}, "epsilon": {"f": 0.0}, "num_args": {"i": "1"}, "T": {"type": "DT_FLOAT"}}}, {"name": "StatefulPartitionedCall/functional_1_1/dense_2_1/Add", "op": "_FusedMatMul", "input": ["StatefulPartitionedCall/functional_1_1/dense_1_2/Relu", "StatefulPartitionedCall/functional_1_1/dense_2_1/Cast/ReadVariableOp", "StatefulPartitionedCall/functional_1_1/dense_2_1/Add/ReadVariableOp"], "device": "/device:CPU:0", "attr": {"T": {"type": "DT_FLOAT"}, "epsilon": {"f": 0.0}, "num_args": {"i": "1"}, "leakyrelu_alpha": {"f": 0.2}, "transpose_a": {"b": false}, "fused_ops": {"list": {"s": ["Qmlhc0FkZA=="]}}, "transpose_b": {"b": false}}}, {"name": "StatefulPartitionedCall/functional_1_1/dense_2_1/Sigmoid", "op": "Sigmoid", "input": ["StatefulPartitionedCall/functional_1_1/dense_2_1/Add"], "attr": {"T": {"type": "DT_FLOAT"}}}, {"name": "Identity", "op": "Identity", "input": ["StatefulPartitionedCall/functional_1_1/dense_2_1/Sigmoid"], "attr": {"T": {"type": "DT_FLOAT"}}}], "library": {}, "versions": {"producer": 1766}}, "weightsManifest": [{"paths": ["group1-shard1of6.bin", "group1-shard2of6.bin", "group1-shard3of6.bin", "group1-shard4of6.bin", "group1-shard5of6.bin", "group1-shard6of6.bin"], "weights": [{"name": "StatefulPartitionedCall/functional_1_1/conv2d_40_1/convolution/merged_input", "shape": [1, 1, 768, 192], "dtype": "float32"}, {"name": "StatefulPartitionedCall/functional_1_1/batch_normalization_40_1/batchnorm/sub", "shape": [1, 1, 1, 192], "dtype": "float32"}, {"name": "StatefulPartitionedCall/functional_1_1/conv2d_41_1/convolution/merged_input", "shape": [1, 1, 768, 160], "dtype": "float32"}, {"name": "StatefulPartitionedCall/functional_1_1/batch_normalization_41_1/batchnorm/sub", "shape": [1, 1, 1, 160], "dtype": "float32"}, {"name": "StatefulPartitionedCall/functional_1_1/conv2d_42_1/convolution/merged_input", "shape": [1, 7, 160, 160], "dtype": "float32"}, {"name": "StatefulPartitionedCall/functional_1_1/batch_normalization_42_1/batchnorm/sub", "shape": [1, 1, 1, 160], "dtype": "float32"}, {"name": "StatefulPartitionedCall/functional_1_1/conv2d_43_1/convolution/merged_input", "shape": [7, 1, 160, 192], "dtype": "float32"}, {"name": "StatefulPartitionedCall/functional_1_1/batch_normalization_43_1/batchnorm/sub", "shape": [1, 1, 1, 192], "dtype": "float32"}, {"name": "StatefulPartitionedCall/functional_1_1/conv2d_44_1/convolution/merged_input", "shape": [1, 1, 768, 160], "dtype": "float32"}, {"name": "StatefulPartitionedCall/functional_1_1/batch_normalization_44_1/batchnorm/sub", "shape": [1, 1, 1, 160], "dtype": "float32"}, {"name": "StatefulPartitionedCall/functional_1_1/conv2d_45_1/convolution/merged_input", "shape": [7, 1, 160, 160], "dtype": "float32"}, {"name": "StatefulPartitionedCall/functional_1_1/batch_normalization_45_1/batchnorm/sub", "shape": [1, 1, 1, 160], "dtype": "float32"}, {"name": "StatefulPartitionedCall/functional_1_1/conv2d_46_1/convolution/merged_input", "shape": [1, 7, 160, 160], "dtype": "float32"}, {"name": "StatefulPartitionedCall/functional_1_1/batch_normalization_46_1/batchnorm/sub", "shape": [1, 1, 1, 160], "dtype": "float32"}, {"name": "StatefulPartitionedCall/functional_1_1/conv2d_47_1/convolution/merged_input", "shape": [7, 1, 160, 160], "dtype": "float32"}, {"name": "StatefulPartitionedCall/functional_1_1/batch_normalization_47_1/batchnorm/sub", "shape": [1, 1, 1, 160], "dtype": "float32"}, {"name": "StatefulPartitionedCall/functional_1_1/conv2d_48_1/convolution/merged_input", "shape": [1, 7, 160, 192], "dtype": "float32"}, {"name": "StatefulPartitionedCall/functional_1_1/batch_normalization_48_1/batchnorm/sub", "shape": [1, 1, 1, 192], "dtype": "float32"}, {"name": "StatefulPartitionedCall/functional_1_1/conv2d_30_1/convolution/merged_input", "shape": [1, 1, 768, 192], "dtype": "float32"}, {"name": "StatefulPartitionedCall/functional_1_1/batch_normalization_30_1/batchnorm/sub", "shape": [1, 1, 1, 192], "dtype": "float32"}, {"name": "StatefulPartitionedCall/functional_1_1/conv2d_31_1/convolution/merged_input", "shape": [1, 1, 768, 128], "dtype": "float32"}, {"name": "StatefulPartitionedCall/functional_1_1/batch_normalization_31_1/batchnorm/sub", "shape": [1, 1, 1, 128], "dtype": "float32"}, {"name": "StatefulPartitionedCall/functional_1_1/conv2d_32_1/convolution/merged_input", "shape": [1, 7, 128, 128], "dtype": "float32"}, {"name": "StatefulPartitionedCall/functional_1_1/batch_normalization_32_1/batchnorm/sub", "shape": [1, 1, 1, 128], "dtype": "float32"}, {"name": "StatefulPartitionedCall/functional_1_1/conv2d_33_1/convolution/merged_input", "shape": [7, 1, 128, 192], "dtype": "float32"}, {"name": "StatefulPartitionedCall/functional_1_1/batch_normalization_33_1/batchnorm/sub", "shape": [1, 1, 1, 192], "dtype": "float32"}, {"name": "StatefulPartitionedCall/functional_1_1/conv2d_34_1/convolution/merged_input", "shape": [1, 1, 768, 128], "dtype": "float32"}, {"name": "StatefulPartitionedCall/functional_1_1/batch_normalization_34_1/batchnorm/sub", "shape": [1, 1, 1, 128], "dtype": "float32"}, {"name": "StatefulPartitionedCall/functional_1_1/conv2d_35_1/convolution/merged_input", "shape": [7, 1, 128, 128], "dtype": "float32"}, {"name": "StatefulPartitionedCall/functional_1_1/batch_normalization_35_1/batchnorm/sub", "shape": [1, 1, 1, 128], "dtype": "float32"}, {"name": "StatefulPartitionedCall/functional_1_1/conv2d_36_1/convolution/merged_input", "shape": [1, 7, 128, 128], "dtype": "float32"}, {"name": "StatefulPartitionedCall/functional_1_1/batch_normalization_36_1/batchnorm/sub", "shape": [1, 1, 1, 128], "dtype": "float32"}, {"name": "StatefulPartitionedCall/functional_1_1/conv2d_37_1/convolution/merged_input", "shape": [7, 1, 128, 128], "dtype": "float32"}, {"name": "StatefulPartitionedCall/functional_1_1/batch_normalization_37_1/batchnorm/sub", "shape": [1, 1, 1, 128], "dtype": "float32"}, {"name": "StatefulPartitionedCall/functional_1_1/conv2d_38_1/convolution/merged_input", "shape": [1, 7, 128, 192], "dtype": "float32"}, {"name": "StatefulPartitionedCall/functional_1_1/batch_normalization_38_1/batchnorm/sub", "shape": [1, 1, 1, 192], "dtype": "float32"}, {"name": "StatefulPartitionedCall/functional_1_1/conv2d_26_1/convolution/merged_input", "shape": [3, 3, 288, 384], "dtype": "float32"}, {"name": "StatefulPartitionedCall/functional_1_1/batch_normalization_26_1/batchnorm/sub", "shape": [1, 1, 1, 384], "dtype": "float32"}, {"name": "StatefulPartitionedCall/functional_1_1/conv2d_27_1/convolution/merged_input", "shape": [1, 1, 288, 64], "dtype": "float32"}, {"name": "StatefulPartitionedCall/functional_1_1/batch_normalization_27_1/batchnorm/sub", "shape": [1, 1, 1, 64], "dtype": "float32"}, {"name": "StatefulPartitionedCall/functional_1_1/conv2d_28_1/convolution/merged_input", "shape": [3, 3, 64, 96], "dtype": "float32"}, {"name": "StatefulPartitionedCall/functional_1_1/batch_normalization_28_1/batchnorm/sub", "shape": [1, 1, 1, 96], "dtype": "float32"}, {"name": "StatefulPartitionedCall/functional_1_1/conv2d_29_1/convolution/merged_input", "shape": [3, 3, 96, 96], "dtype": "float32"}, {"name": "StatefulPartitionedCall/functional_1_1/batch_normalization_29_1/batchnorm/sub", "shape": [1, 1, 1, 96], "dtype": "float32"}, {"name": "StatefulPartitionedCall/functional_1_1/conv2d_19_1/convolution/merged_input", "shape": [1, 1, 288, 64], "dtype": "float32"}, {"name": "StatefulPartitionedCall/functional_1_1/batch_normalization_19_1/batchnorm/sub", "shape": [1, 1, 1, 64], "dtype": "float32"}, {"name": "StatefulPartitionedCall/functional_1_1/conv2d_20_1/convolution/merged_input", "shape": [1, 1, 288, 48], "dtype": "float32"}, {"name": "StatefulPartitionedCall/functional_1_1/batch_normalization_20_1/batchnorm/sub", "shape": [1, 1, 1, 48], "dtype": "float32"}, {"name": "StatefulPartitionedCall/functional_1_1/conv2d_21_1/convolution/merged_input", "shape": [5, 5, 48, 64], "dtype": "float32"}, {"name": "StatefulPartitionedCall/functional_1_1/batch_normalization_21_1/batchnorm/sub", "shape": [1, 1, 1, 64], "dtype": "float32"}, {"name": "StatefulPartitionedCall/functional_1_1/conv2d_22_1/convolution/merged_input", "shape": [1, 1, 288, 64], "dtype": "float32"}, {"name": "StatefulPartitionedCall/functional_1_1/batch_normalization_22_1/batchnorm/sub", "shape": [1, 1, 1, 64], "dtype": "float32"}, {"name": "StatefulPartitionedCall/functional_1_1/conv2d_23_1/convolution/merged_input", "shape": [3, 3, 64, 96], "dtype": "float32"}, {"name": "StatefulPartitionedCall/functional_1_1/batch_normalization_23_1/batchnorm/sub", "shape": [1, 1, 1, 96], "dtype": "float32"}, {"name": "StatefulPartitionedCall/functional_1_1/conv2d_24_1/convolution/merged_input", "shape": [3, 3, 96, 96], "dtype": "float32"}, {"name": "StatefulPartitionedCall/functional_1_1/batch_normalization_24_1/batchnorm/sub", "shape": [1, 1, 1, 96], "dtype": "float32"}, {"name": "StatefulPartitionedCall/functional_1_1/conv2d_12_1/convolution/merged_input", "shape": [1, 1, 256, 64], "dtype": "float32"}, {"name": "StatefulPartitionedCall/functional_1_1/batch_normalization_12_1/batchnorm/sub", "shape": [1, 1, 1, 64], "dtype": "float32"}, {"name": "StatefulPartitionedCall/functional_1_1/conv2d_13_1/convolution/merged_input", "shape": [1, 1, 256, 48], "dtype": "float32"}, {"name": "StatefulPartitionedCall/functional_1_1/batch_normalization_13_1/batchnorm/sub", "shape": [1, 1, 1, 48], "dtype": "float32"}, {"name": "StatefulPartitionedCall/functional_1_1/conv2d_14_1/convolution/merged_input", "shape": [5, 5, 48, 64], "dtype": "float32"}, {"name": "StatefulPartitionedCall/functional_1_1/batch_normalization_14_1/batchnorm/sub", "shape": [1, 1, 1, 64], "dtype": "float32"}, {"name": "StatefulPartitionedCall/functional_1_1/conv2d_15_1/convolution/merged_input", "shape": [1, 1, 256, 64], "dtype": "float32"}, {"name": "StatefulPartitionedCall/functional_1_1/batch_normalization_15_1/batchnorm/sub", "shape": [1, 1, 1, 64], "dtype": "float32"}, {"name": "StatefulPartitionedCall/functional_1_1/conv2d_16_1/convolution/merged_input", "shape": [3, 3, 64, 96], "dtype": "float32"}, {"name": "StatefulPartitionedCall/functional_1_1/batch_normalization_16_1/batchnorm/sub", "shape": [1, 1, 1, 96], "dtype": "float32"}, {"name": "StatefulPartitionedCall/functional_1_1/conv2d_17_1/convolution/merged_input", "shape": [3, 3, 96, 96], "dtype": "float32"}, {"name": "StatefulPartitionedCall/functional_1_1/batch_normalization_17_1/batchnorm/sub", "shape": [1, 1, 1, 96], "dtype": "float32"}, {"name": "StatefulPartitionedCall/functional_1_1/conv2d_5_1/convolution/merged_input", "shape": [1, 1, 192, 64], "dtype": "float32"}, {"name": "StatefulPartitionedCall/functional_1_1/batch_normalization_5_1/batchnorm/sub", "shape": [1, 1, 1, 64], "dtype": "float32"}, {"name": "StatefulPartitionedCall/functional_1_1/conv2d_6_1/convolution/merged_input", "shape": [1, 1, 192, 48], "dtype": "float32"}, {"name": "StatefulPartitionedCall/functional_1_1/batch_normalization_6_1/batchnorm/sub", "shape": [1, 1, 1, 48], "dtype": "float32"}, {"name": "StatefulPartitionedCall/functional_1_1/conv2d_7_1/convolution/merged_input", "shape": [5, 5, 48, 64], "dtype": "float32"}, {"name": "StatefulPartitionedCall/functional_1_1/batch_normalization_7_1/batchnorm/sub", "shape": [1, 1, 1, 64], "dtype": "float32"}, {"name": "StatefulPartitionedCall/functional_1_1/conv2d_8_1/convolution/merged_input", "shape": [1, 1, 192, 64], "dtype": "float32"}, {"name": "StatefulPartitionedCall/functional_1_1/batch_normalization_8_1/batchnorm/sub", "shape": [1, 1, 1, 64], "dtype": "float32"}, {"name": "StatefulPartitionedCall/functional_1_1/conv2d_9_1/convolution/merged_input", "shape": [3, 3, 64, 96], "dtype": "float32"}, {"name": "StatefulPartitionedCall/functional_1_1/batch_normalization_9_1/batchnorm/sub", "shape": [1, 1, 1, 96], "dtype": "float32"}, {"name": "StatefulPartitionedCall/functional_1_1/conv2d_10_1/convolution/merged_input", "shape": [3, 3, 96, 96], "dtype": "float32"}, {"name": "StatefulPartitionedCall/functional_1_1/batch_normalization_10_1/batchnorm/sub", "shape": [1, 1, 1, 96], "dtype": "float32"}, {"name": "StatefulPartitionedCall/functional_1_1/conv2d_1/convolution/merged_input", "shape": [3, 3, 3, 32], "dtype": "float32"}, {"name": "StatefulPartitionedCall/functional_1_1/batch_normalization_1/batchnorm/sub", "shape": [1, 1, 1, 32], "dtype": "float32"}, {"name": "StatefulPartitionedCall/functional_1_1/conv2d_1_2/convolution/merged_input", "shape": [3, 3, 32, 32], "dtype": "float32"}, {"name": "StatefulPartitionedCall/functional_1_1/batch_normalization_1_2/batchnorm/sub", "shape": [1, 1, 1, 32], "dtype": "float32"}, {"name": "StatefulPartitionedCall/functional_1_1/conv2d_2_1/convolution/merged_input", "shape": [3, 3, 32, 64], "dtype": "float32"}, {"name": "StatefulPartitionedCall/functional_1_1/batch_normalization_2_1/batchnorm/sub", "shape": [1, 1, 1, 64], "dtype": "float32"}, {"name": "StatefulPartitionedCall/functional_1_1/conv2d_3_1/convolution/merged_input", "shape": [1, 1, 64, 80], "dtype": "float32"}, {"name": "StatefulPartitionedCall/functional_1_1/batch_normalization_3_1/batchnorm/sub", "shape": [1, 1, 1, 80], "dtype": "float32"}, {"name": "StatefulPartitionedCall/functional_1_1/conv2d_4_1/convolution/merged_input", "shape": [3, 3, 80, 192], "dtype": "float32"}, {"name": "StatefulPartitionedCall/functional_1_1/batch_normalization_4_1/batchnorm/sub", "shape": [1, 1, 1, 192], "dtype": "float32"}, {"name": "StatefulPartitionedCall/functional_1_1/conv2d_11_1/convolution/merged_input", "shape": [1, 1, 192, 32], "dtype": "float32"}, {"name": "StatefulPartitionedCall/functional_1_1/batch_normalization_11_1/batchnorm/sub", "shape": [1, 1, 1, 32], "dtype": "float32"}, {"name": "StatefulPartitionedCall/functional_1_1/mixed0_1/concat/axis", "shape": [], "dtype": "int32"}, {"name": "StatefulPartitionedCall/functional_1_1/conv2d_18_1/convolution/merged_input", "shape": [1, 1, 256, 64], "dtype": "float32"}, {"name": "StatefulPartitionedCall/functional_1_1/batch_normalization_18_1/batchnorm/sub", "shape": [1, 1, 1, 64], "dtype": "float32"}, {"name": "StatefulPartitionedCall/functional_1_1/mixed1_1/concat/axis", "shape": [], "dtype": "int32"}, {"name": "StatefulPartitionedCall/functional_1_1/conv2d_25_1/convolution/merged_input", "shape": [1, 1, 288, 64], "dtype": "float32"}, {"name": "StatefulPartitionedCall/functional_1_1/batch_normalization_25_1/batchnorm/sub", "shape": [1, 1, 1, 64], "dtype": "float32"}, {"name": "StatefulPartitionedCall/functional_1_1/mixed2_1/concat/axis", "shape": [], "dtype": "int32"}, {"name": "StatefulPartitionedCall/functional_1_1/mixed3_1/concat/axis", "shape": [], "dtype": "int32"}, {"name": "StatefulPartitionedCall/functional_1_1/conv2d_39_1/convolution/merged_input", "shape": [1, 1, 768, 192], "dtype": "float32"}, {"name": "StatefulPartitionedCall/functional_1_1/batch_normalization_39_1/batchnorm/sub", "shape": [1, 1, 1, 192], "dtype": "float32"}, {"name": "StatefulPartitionedCall/functional_1_1/mixed4_1/concat/axis", "shape": [], "dtype": "int32"}, {"name": "StatefulPartitionedCall/functional_1_1/conv2d_49_1/convolution/merged_input", "shape": [1, 1, 768, 192], "dtype": "float32"}, {"name": "StatefulPartitionedCall/functional_1_1/batch_normalization_49_1/batchnorm/sub", "shape": [1, 1, 1, 192], "dtype": "float32"}, {"name": "StatefulPartitionedCall/functional_1_1/mixed5_1/concat/axis", "shape": [], "dtype": "int32"}, {"name": "StatefulPartitionedCall/functional_1_1/conv2d_94_1/convolution/ReadVariableOp", "shape": [3, 3, 768, 64], "dtype": "float32"}, {"name": "StatefulPartitionedCall/functional_1_1/conv2d_94_1/Reshape", "shape": [1, 1, 1, 64], "dtype": "float32"}, {"name": "StatefulPartitionedCall/functional_1_1/global_average_pooling2d_1/Mean/reduction_indices", "shape": [2], "dtype": "int32"}, {"name": "StatefulPartitionedCall/functional_1_1/dense_1/Cast/ReadVariableOp", "shape": [64, 1024], "dtype": "float32"}, {"name": "StatefulPartitionedCall/functional_1_1/dense_1/Add/ReadVariableOp", "shape": [1024], "dtype": "float32"}, {"name": "StatefulPartitionedCall/functional_1_1/dense_1_2/Cast/ReadVariableOp", "shape": [1024, 512], "dtype": "float32"}, {"name": "StatefulPartitionedCall/functional_1_1/dense_1_2/Add/ReadVariableOp", "shape": [512], "dtype": "float32"}, {"name": "StatefulPartitionedCall/functional_1_1/dense_2_1/Cast/ReadVariableOp", "shape": [512, 1], "dtype": "float32"}, {"name": "StatefulPartitionedCall/functional_1_1/dense_2_1/Add/ReadVariableOp", "shape": [1], "dtype": "float32"}]}]}